…
I1111 10:57:57.738559 25803 net.cpp:322] The NetState phase (0) differed from the phase (1) specified by a rule in layer accuracy
I1111 10:57:57.738697 25803 net.cpp:58] Initializing net from parameters: 
name: "CaffeNet"
state {
  phase: TRAIN
  level: 0
  stage: ""
}
layer {
  name: "data"
  type: "Data"
  top: "data"
  top: "label"
  include {
    phase: TRAIN
  }
  transform_param {
    mirror: true
    crop_size: 227
    mean_file: "/home/deepglint/deeplearning-cats-dogs-tutorial/input/mean.binaryproto"
  }
  data_param {
    source: "/home/deepglint/deeplearning-cats-dogs-tutorial/input/train_lmdb"
    batch_size: 128
    backend: LMDB
  }
}
layer {
  name: "conv1"
  type: "Convolution"
  bottom: "data"
  top: "conv1"
  param {
    lr_mult: 1
    decay_mult: 1
  }
  param {
    lr_mult: 2
    decay_mult: 0
  }
  convolution_param {
    num_output: 96
    kernel_size: 11
    stride: 4
    weight_filler {
      type: "gaussian"
      std: 0.01
    }
    bias_filler {
      type: "constant"
      value: 0
    }
  }
}
layer {
  name: "relu1"
  type: "ReLU"
  bottom: "conv1"
  top: "conv1"
}
layer {
  name: "pool1"
  type: "Pooling"
  bottom: "conv1"
  top: "pool1"
  pooling_param {
    pool: MAX
    kernel_size: 3
    stride: 2
  }
}
layer {
  name: "norm1"
  type: "LRN"
  bottom: "pool1"
  top: "norm1"
  lrn_param {
    local_size: 5
    alpha: 0.0001
    beta: 0.75
  }
}
layer {
  name: "conv2"
  type: "Convolution"
  bottom: "norm1"
  top: "conv2"
  param {
    lr_mult: 1
    decay_mult: 1
  }
  param {
    lr_mult: 2
    decay_mult: 0
  }
  convolution_param {
    num_output: 256
    pad: 2
    kernel_size: 5
    group: 2
    weight_filler {
      type: "gaussian"
      std: 0.01
    }
    bias_filler {
      type: "constant"
      value: 1
    }
  }
}
layer {
  name: "relu2"
  type: "ReLU"
  bottom: "conv2"
  top: "conv2"
}
layer {
  name: "pool2"
  type: "Pooling"
  bottom: "conv2"
  top: "pool2"
  pooling_param {
    pool: MAX
    kernel_size: 3
    stride: 2
  }
}
layer {
  name: "norm2"
  type: "LRN"
  bottom: "pool2"
  top: "norm2"
  lrn_param {
    local_size: 5
    alpha: 0.0001
    beta: 0.75
  }
}
layer {
  name: "conv3"
  type: "Convolution"
  bottom: "norm2"
  top: "conv3"
  param {
    lr_mult: 1
    decay_mult: 1
  }
  param {
    lr_mult: 2
    decay_mult: 0
  }
  convolution_param {
    num_output: 384
    pad: 1
    kernel_size: 3
    weight_filler {
      type: "gaussian"
      std: 0.01
    }
    bias_filler {
      type: "constant"
      value: 0
    }
  }
}
layer {
  name: "relu3"
  type: "ReLU"
  bottom: "conv3"
  top: "conv3"
}
layer {
  name: "conv4"
  type: "Convolution"
  bottom: "conv3"
  top: "conv4"
  param {
    lr_mult: 1
    decay_mult: 1
  }
  param {
    lr_mult: 2
    decay_mult: 0
  }
  convolution_param {
    num_output: 384
    pad: 1
    kernel_size: 3
    group: 2
    weight_filler {
      type: "gaussian"
      std: 0.01
    }
    bias_filler {
      type: "constant"
      value: 1
    }
  }
}
layer {
  name: "relu4"
  type: "ReLU"
  bottom: "conv4"
  top: "conv4"
}
layer {
  name: "conv5"
  type: "Convolution"
  bottom: "conv4"
  top: "conv5"
  param {
    lr_mult: 1
    decay_mult: 1
  }
  param {
    lr_mult: 2
    decay_mult: 0
  }
  convolution_param {
    num_output: 256
    pad: 1
    kernel_size: 3
    group: 2
    weight_filler {
      type: "gaussian"
      std: 0.01
    }
    bias_filler {
      type: "constant"
      value: 1
    }
  }
}
layer {
  name: "relu5"
  type: "ReLU"
  bottom: "conv5"
  top: "conv5"
}
layer {
  name: "pool5"
  type: "Pooling"
  bottom: "conv5"
  top: "pool5"
  pooling_param {
    pool: MAX
    kernel_size: 3
    stride: 2
  }
}
layer {
  name: "fc6"
  type: "InnerProduct"
  bottom: "pool5"
  top: "fc6"
  param {
    lr_mult: 1
    decay_mult: 1
  }
  param {
    lr_mult: 2
    decay_mult: 0
  }
  inner_product_param {
    num_output: 4096
    weight_filler {
      type: "gaussian"
      std: 0.005
    }
    bias_filler {
      type: "constant"
      value: 1
    }
  }
}
layer {
  name: "relu6"
  type: "ReLU"
  bottom: "fc6"
  top: "fc6"
}
layer {
  name: "drop6"
  type: "Dropout"
  bottom: "fc6"
  top: "fc6"
  dropout_param {
    dropout_ratio: 0.5
  }
}
layer {
  name: "fc7"
  type: "InnerProduct"
  bottom: "fc6"
  top: "fc7"
  param {
    lr_mult: 1
    decay_mult: 1
  }
  param {
    lr_mult: 2
    decay_mult: 0
  }
  inner_product_param {
    num_output: 4096
    weight_filler {
      type: "gaussian"
      std: 0.005
    }
    bias_filler {
      type: "constant"
      value: 1
    }
  }
}
layer {
  name: "relu7"
  type: "ReLU"
  bottom: "fc7"
  top: "fc7"
}
layer {
  name: "drop7"
  type: "Dropout"
  bottom: "fc7"
  top: "fc7"
  dropout_param {
    dropout_ratio: 0.5
  }
}
layer {
  name: "fc8"
  type: "InnerProduct"
  bottom: "fc7"
  top: "fc8"
  param {
    lr_mult: 1
    decay_mult: 1
  }
  param {
    lr_mult: 2
    decay_mult: 0
  }
  inner_product_param {
    num_output: 2
    weight_filler {
      type: "gaussian"
      std: 0.01
    }
    bias_filler {
      type: "constant"
      value: 0
    }
  }
}
layer {
  name: "loss"
  type: "SoftmaxWithLoss"
  bottom: "fc8"
  bottom: "label"
  top: "loss"
}
I1111 10:57:57.738795 25803 layer_factory.hpp:77] Creating layer data
I1111 10:57:57.739255 25803 net.cpp:100] Creating Layer data
I1111 10:57:57.739267 25803 net.cpp:408] data -> data
I1111 10:57:57.739285 25803 net.cpp:408] data -> label
I1111 10:57:57.739295 25803 data_transformer.cpp:25] Loading mean file from: /home/deepglint/deeplearning-cats-dogs-tutorial/input/mean.binaryproto
I1111 10:57:57.740154 25808 db_lmdb.cpp:35] Opened lmdb /home/deepglint/deeplearning-cats-dogs-tutorial/input/train_lmdb
I1111 10:57:57.747944 25803 data_layer.cpp:41] output data size: 128,3,227,227
I1111 10:57:57.841130 25803 net.cpp:150] Setting up data
I1111 10:57:57.841166 25803 net.cpp:157] Top shape: 128 3 227 227 (19787136)
I1111 10:57:57.841172 25803 net.cpp:157] Top shape: 128 (128)
I1111 10:57:57.841176 25803 net.cpp:165] Memory required for data: 79149056
I1111 10:57:57.841186 25803 layer_factory.hpp:77] Creating layer conv1
I1111 10:57:57.841204 25803 net.cpp:100] Creating Layer conv1
I1111 10:57:57.841210 25803 net.cpp:434] conv1 <- data
I1111 10:57:57.841222 25803 net.cpp:408] conv1 -> conv1
I1111 10:57:57.848995 25803 net.cpp:150] Setting up conv1
I1111 10:57:57.849012 25803 net.cpp:157] Top shape: 128 96 55 55 (37171200)
I1111 10:57:57.849017 25803 net.cpp:165] Memory required for data: 227833856
I1111 10:57:57.849030 25803 layer_factory.hpp:77] Creating layer relu1
I1111 10:57:57.849038 25803 net.cpp:100] Creating Layer relu1
I1111 10:57:57.849043 25803 net.cpp:434] relu1 <- conv1
I1111 10:57:57.849059 25803 net.cpp:395] relu1 -> conv1 (in-place)
I1111 10:57:57.849084 25803 net.cpp:150] Setting up relu1
I1111 10:57:57.849090 25803 net.cpp:157] Top shape: 128 96 55 55 (37171200)
I1111 10:57:57.849094 25803 net.cpp:165] Memory required for data: 376518656
I1111 10:57:57.849107 25803 layer_factory.hpp:77] Creating layer pool1
I1111 10:57:57.849114 25803 net.cpp:100] Creating Layer pool1
I1111 10:57:57.849118 25803 net.cpp:434] pool1 <- conv1
I1111 10:57:57.849123 25803 net.cpp:408] pool1 -> pool1
I1111 10:57:57.849184 25803 net.cpp:150] Setting up pool1
I1111 10:57:57.849200 25803 net.cpp:157] Top shape: 128 96 27 27 (8957952)
I1111 10:57:57.849205 25803 net.cpp:165] Memory required for data: 412350464
I1111 10:57:57.849208 25803 layer_factory.hpp:77] Creating layer norm1
I1111 10:57:57.849217 25803 net.cpp:100] Creating Layer norm1
I1111 10:57:57.849221 25803 net.cpp:434] norm1 <- pool1
I1111 10:57:57.849226 25803 net.cpp:408] norm1 -> norm1
I1111 10:57:57.849264 25803 net.cpp:150] Setting up norm1
I1111 10:57:57.849270 25803 net.cpp:157] Top shape: 128 96 27 27 (8957952)
I1111 10:57:57.849274 25803 net.cpp:165] Memory required for data: 448182272
I1111 10:57:57.849278 25803 layer_factory.hpp:77] Creating layer conv2
I1111 10:57:57.849287 25803 net.cpp:100] Creating Layer conv2
I1111 10:57:57.849292 25803 net.cpp:434] conv2 <- norm1
I1111 10:57:57.849298 25803 net.cpp:408] conv2 -> conv2
I1111 10:57:57.858227 25803 net.cpp:150] Setting up conv2
I1111 10:57:57.858253 25803 net.cpp:157] Top shape: 128 256 27 27 (23887872)
I1111 10:57:57.858258 25803 net.cpp:165] Memory required for data: 543733760
I1111 10:57:57.858270 25803 layer_factory.hpp:77] Creating layer relu2
I1111 10:57:57.858289 25803 net.cpp:100] Creating Layer relu2
I1111 10:57:57.858295 25803 net.cpp:434] relu2 <- conv2
I1111 10:57:57.858301 25803 net.cpp:395] relu2 -> conv2 (in-place)
I1111 10:57:57.858311 25803 net.cpp:150] Setting up relu2
I1111 10:57:57.858316 25803 net.cpp:157] Top shape: 128 256 27 27 (23887872)
I1111 10:57:57.858320 25803 net.cpp:165] Memory required for data: 639285248
I1111 10:57:57.858325 25803 layer_factory.hpp:77] Creating layer pool2
I1111 10:57:57.858331 25803 net.cpp:100] Creating Layer pool2
I1111 10:57:57.858335 25803 net.cpp:434] pool2 <- conv2
I1111 10:57:57.858341 25803 net.cpp:408] pool2 -> pool2
I1111 10:57:57.858376 25803 net.cpp:150] Setting up pool2
I1111 10:57:57.858382 25803 net.cpp:157] Top shape: 128 256 13 13 (5537792)
I1111 10:57:57.858386 25803 net.cpp:165] Memory required for data: 661436416
I1111 10:57:57.858391 25803 layer_factory.hpp:77] Creating layer norm2
I1111 10:57:57.858399 25803 net.cpp:100] Creating Layer norm2
I1111 10:57:57.858403 25803 net.cpp:434] norm2 <- pool2
I1111 10:57:57.858408 25803 net.cpp:408] norm2 -> norm2
I1111 10:57:57.858433 25803 net.cpp:150] Setting up norm2
I1111 10:57:57.858438 25803 net.cpp:157] Top shape: 128 256 13 13 (5537792)
I1111 10:57:57.858443 25803 net.cpp:165] Memory required for data: 683587584
I1111 10:57:57.858446 25803 layer_factory.hpp:77] Creating layer conv3
I1111 10:57:57.858466 25803 net.cpp:100] Creating Layer conv3
I1111 10:57:57.858470 25803 net.cpp:434] conv3 <- norm2
I1111 10:57:57.858476 25803 net.cpp:408] conv3 -> conv3
I1111 10:57:57.882418 25803 net.cpp:150] Setting up conv3
I1111 10:57:57.882449 25803 net.cpp:157] Top shape: 128 384 13 13 (8306688)
I1111 10:57:57.882454 25803 net.cpp:165] Memory required for data: 716814336
I1111 10:57:57.882465 25803 layer_factory.hpp:77] Creating layer relu3
I1111 10:57:57.882474 25803 net.cpp:100] Creating Layer relu3
I1111 10:57:57.882479 25803 net.cpp:434] relu3 <- conv3
I1111 10:57:57.882486 25803 net.cpp:395] relu3 -> conv3 (in-place)
I1111 10:57:57.882495 25803 net.cpp:150] Setting up relu3
I1111 10:57:57.882500 25803 net.cpp:157] Top shape: 128 384 13 13 (8306688)
I1111 10:57:57.882504 25803 net.cpp:165] Memory required for data: 750041088
I1111 10:57:57.882508 25803 layer_factory.hpp:77] Creating layer conv4
I1111 10:57:57.882517 25803 net.cpp:100] Creating Layer conv4
I1111 10:57:57.882522 25803 net.cpp:434] conv4 <- conv3
I1111 10:57:57.882529 25803 net.cpp:408] conv4 -> conv4
I1111 10:57:57.900501 25803 net.cpp:150] Setting up conv4
I1111 10:57:57.900529 25803 net.cpp:157] Top shape: 128 384 13 13 (8306688)
I1111 10:57:57.900534 25803 net.cpp:165] Memory required for data: 783267840
I1111 10:57:57.900543 25803 layer_factory.hpp:77] Creating layer relu4
I1111 10:57:57.900552 25803 net.cpp:100] Creating Layer relu4
I1111 10:57:57.900557 25803 net.cpp:434] relu4 <- conv4
I1111 10:57:57.900564 25803 net.cpp:395] relu4 -> conv4 (in-place)
I1111 10:57:57.900583 25803 net.cpp:150] Setting up relu4
I1111 10:57:57.900594 25803 net.cpp:157] Top shape: 128 384 13 13 (8306688)
I1111 10:57:57.900599 25803 net.cpp:165] Memory required for data: 816494592
I1111 10:57:57.900602 25803 layer_factory.hpp:77] Creating layer conv5
I1111 10:57:57.900612 25803 net.cpp:100] Creating Layer conv5
I1111 10:57:57.900616 25803 net.cpp:434] conv5 <- conv4
I1111 10:57:57.900624 25803 net.cpp:408] conv5 -> conv5
I1111 10:57:57.912674 25803 net.cpp:150] Setting up conv5
I1111 10:57:57.912715 25803 net.cpp:157] Top shape: 128 256 13 13 (5537792)
I1111 10:57:57.912720 25803 net.cpp:165] Memory required for data: 838645760
I1111 10:57:57.912734 25803 layer_factory.hpp:77] Creating layer relu5
I1111 10:57:57.912744 25803 net.cpp:100] Creating Layer relu5
I1111 10:57:57.912749 25803 net.cpp:434] relu5 <- conv5
I1111 10:57:57.912755 25803 net.cpp:395] relu5 -> conv5 (in-place)
I1111 10:57:57.912765 25803 net.cpp:150] Setting up relu5
I1111 10:57:57.912770 25803 net.cpp:157] Top shape: 128 256 13 13 (5537792)
I1111 10:57:57.912775 25803 net.cpp:165] Memory required for data: 860796928
I1111 10:57:57.912778 25803 layer_factory.hpp:77] Creating layer pool5
I1111 10:57:57.912786 25803 net.cpp:100] Creating Layer pool5
I1111 10:57:57.912789 25803 net.cpp:434] pool5 <- conv5
I1111 10:57:57.912796 25803 net.cpp:408] pool5 -> pool5
I1111 10:57:57.912827 25803 net.cpp:150] Setting up pool5
I1111 10:57:57.912833 25803 net.cpp:157] Top shape: 128 256 6 6 (1179648)
I1111 10:57:57.912837 25803 net.cpp:165] Memory required for data: 865515520
I1111 10:57:57.912842 25803 layer_factory.hpp:77] Creating layer fc6
I1111 10:57:57.912852 25803 net.cpp:100] Creating Layer fc6
I1111 10:57:57.912855 25803 net.cpp:434] fc6 <- pool5
I1111 10:57:57.912861 25803 net.cpp:408] fc6 -> fc6
I1111 10:57:58.888414 25803 net.cpp:150] Setting up fc6
I1111 10:57:58.888447 25803 net.cpp:157] Top shape: 128 4096 (524288)
I1111 10:57:58.888451 25803 net.cpp:165] Memory required for data: 867612672
I1111 10:57:58.888461 25803 layer_factory.hpp:77] Creating layer relu6
I1111 10:57:58.888470 25803 net.cpp:100] Creating Layer relu6
I1111 10:57:58.888475 25803 net.cpp:434] relu6 <- fc6
I1111 10:57:58.888481 25803 net.cpp:395] relu6 -> fc6 (in-place)
I1111 10:57:58.888490 25803 net.cpp:150] Setting up relu6
I1111 10:57:58.888495 25803 net.cpp:157] Top shape: 128 4096 (524288)
I1111 10:57:58.888499 25803 net.cpp:165] Memory required for data: 869709824
I1111 10:57:58.888502 25803 layer_factory.hpp:77] Creating layer drop6
I1111 10:57:58.888509 25803 net.cpp:100] Creating Layer drop6
I1111 10:57:58.888514 25803 net.cpp:434] drop6 <- fc6
I1111 10:57:58.888519 25803 net.cpp:395] drop6 -> fc6 (in-place)
I1111 10:57:58.888535 25803 net.cpp:150] Setting up drop6
I1111 10:57:58.888541 25803 net.cpp:157] Top shape: 128 4096 (524288)
I1111 10:57:58.888545 25803 net.cpp:165] Memory required for data: 871806976
I1111 10:57:58.888548 25803 layer_factory.hpp:77] Creating layer fc7
I1111 10:57:58.888556 25803 net.cpp:100] Creating Layer fc7
I1111 10:57:58.888559 25803 net.cpp:434] fc7 <- fc6
I1111 10:57:58.888566 25803 net.cpp:408] fc7 -> fc7
I1111 10:57:59.309664 25803 net.cpp:150] Setting up fc7
I1111 10:57:59.309695 25803 net.cpp:157] Top shape: 128 4096 (524288)
I1111 10:57:59.309700 25803 net.cpp:165] Memory required for data: 873904128
I1111 10:57:59.309710 25803 layer_factory.hpp:77] Creating layer relu7
I1111 10:57:59.309720 25803 net.cpp:100] Creating Layer relu7
I1111 10:57:59.309725 25803 net.cpp:434] relu7 <- fc7
I1111 10:57:59.309731 25803 net.cpp:395] relu7 -> fc7 (in-place)
I1111 10:57:59.309741 25803 net.cpp:150] Setting up relu7
I1111 10:57:59.309746 25803 net.cpp:157] Top shape: 128 4096 (524288)
I1111 10:57:59.309748 25803 net.cpp:165] Memory required for data: 876001280
I1111 10:57:59.309752 25803 layer_factory.hpp:77] Creating layer drop7
I1111 10:57:59.309759 25803 net.cpp:100] Creating Layer drop7
I1111 10:57:59.309763 25803 net.cpp:434] drop7 <- fc7
I1111 10:57:59.309768 25803 net.cpp:395] drop7 -> fc7 (in-place)
I1111 10:57:59.309792 25803 net.cpp:150] Setting up drop7
I1111 10:57:59.309804 25803 net.cpp:157] Top shape: 128 4096 (524288)
I1111 10:57:59.309808 25803 net.cpp:165] Memory required for data: 878098432
I1111 10:57:59.309813 25803 layer_factory.hpp:77] Creating layer fc8
I1111 10:57:59.309819 25803 net.cpp:100] Creating Layer fc8
I1111 10:57:59.309823 25803 net.cpp:434] fc8 <- fc7
I1111 10:57:59.309829 25803 net.cpp:408] fc8 -> fc8
I1111 10:57:59.310492 25803 net.cpp:150] Setting up fc8
I1111 10:57:59.310503 25803 net.cpp:157] Top shape: 128 2 (256)
I1111 10:57:59.310508 25803 net.cpp:165] Memory required for data: 878099456
I1111 10:57:59.310513 25803 layer_factory.hpp:77] Creating layer loss
I1111 10:57:59.310519 25803 net.cpp:100] Creating Layer loss
I1111 10:57:59.310523 25803 net.cpp:434] loss <- fc8
I1111 10:57:59.310528 25803 net.cpp:434] loss <- label
I1111 10:57:59.310535 25803 net.cpp:408] loss -> loss
I1111 10:57:59.310552 25803 layer_factory.hpp:77] Creating layer loss
…
I1111 10:57:59.311403 25803 net.cpp:322] The NetState phase (1) differed from the phase (0) specified by a rule in layer data
I1111 10:57:59.311549 25803 net.cpp:58] Initializing net from parameters: 
name: "CaffeNet"
state {
  phase: TEST
}
layer {
  name: "data"
  type: "Data"
  top: "data"
  top: "label"
  include {
    phase: TEST
  }
  transform_param {
    mirror: false
    crop_size: 227
    mean_file: "/home/deepglint/deeplearning-cats-dogs-tutorial/input/mean.binaryproto"
  }
  data_param {
    source: "/home/deepglint/deeplearning-cats-dogs-tutorial/input/validation_lmdb"
    batch_size: 25
    backend: LMDB
  }
}
layer {
  name: "conv1"
  type: "Convolution"
  bottom: "data"
  top: "conv1"
  param {
    lr_mult: 1
    decay_mult: 1
  }
  param {
    lr_mult: 2
    decay_mult: 0
  }
  convolution_param {
    num_output: 96
    kernel_size: 11
    stride: 4
    weight_filler {
      type: "gaussian"
      std: 0.01
    }
    bias_filler {
      type: "constant"
      value: 0
    }
  }
}
layer {
  name: "relu1"
  type: "ReLU"
  bottom: "conv1"
  top: "conv1"
}
layer {
  name: "pool1"
  type: "Pooling"
  bottom: "conv1"
  top: "pool1"
  pooling_param {
    pool: MAX
    kernel_size: 3
    stride: 2
  }
}
layer {
  name: "norm1"
  type: "LRN"
  bottom: "pool1"
  top: "norm1"
  lrn_param {
    local_size: 5
    alpha: 0.0001
    beta: 0.75
  }
}
layer {
  name: "conv2"
  type: "Convolution"
  bottom: "norm1"
  top: "conv2"
  param {
    lr_mult: 1
    decay_mult: 1
  }
  param {
    lr_mult: 2
    decay_mult: 0
  }
  convolution_param {
    num_output: 256
    pad: 2
    kernel_size: 5
    group: 2
    weight_filler {
      type: "gaussian"
      std: 0.01
    }
    bias_filler {
      type: "constant"
      value: 1
    }
  }
}
layer {
  name: "relu2"
  type: "ReLU"
  bottom: "conv2"
  top: "conv2"
}
layer {
  name: "pool2"
  type: "Pooling"
  bottom: "conv2"
  top: "pool2"
  pooling_param {
    pool: MAX
    kernel_size: 3
    stride: 2
  }
}
layer {
  name: "norm2"
  type: "LRN"
  bottom: "pool2"
  top: "norm2"
  lrn_param {
    local_size: 5
    alpha: 0.0001
    beta: 0.75
  }
}
layer {
  name: "conv3"
  type: "Convolution"
  bottom: "norm2"
  top: "conv3"
  param {
    lr_mult: 1
    decay_mult: 1
  }
  param {
    lr_mult: 2
    decay_mult: 0
  }
  convolution_param {
    num_output: 384
    pad: 1
    kernel_size: 3
    weight_filler {
      type: "gaussian"
      std: 0.01
    }
    bias_filler {
      type: "constant"
      value: 0
    }
  }
}
layer {
  name: "relu3"
  type: "ReLU"
  bottom: "conv3"
  top: "conv3"
}
layer {
  name: "conv4"
  type: "Convolution"
  bottom: "conv3"
  top: "conv4"
  param {
    lr_mult: 1
    decay_mult: 1
  }
  param {
    lr_mult: 2
    decay_mult: 0
  }
  convolution_param {
    num_output: 384
    pad: 1
    kernel_size: 3
    group: 2
    weight_filler {
      type: "gaussian"
      std: 0.01
    }
    bias_filler {
      type: "constant"
      value: 1
    }
  }
}
layer {
  name: "relu4"
  type: "ReLU"
  bottom: "conv4"
  top: "conv4"
}
layer {
  name: "conv5"
  type: "Convolution"
  bottom: "conv4"
  top: "conv5"
  param {
    lr_mult: 1
    decay_mult: 1
  }
  param {
    lr_mult: 2
    decay_mult: 0
  }
  convolution_param {
    num_output: 256
    pad: 1
    kernel_size: 3
    group: 2
    weight_filler {
      type: "gaussian"
      std: 0.01
    }
    bias_filler {
      type: "constant"
      value: 1
    }
  }
}
layer {
  name: "relu5"
  type: "ReLU"
  bottom: "conv5"
  top: "conv5"
}
layer {
  name: "pool5"
  type: "Pooling"
  bottom: "conv5"
  top: "pool5"
  pooling_param {
    pool: MAX
    kernel_size: 3
    stride: 2
  }
}
layer {
  name: "fc6"
  type: "InnerProduct"
  bottom: "pool5"
  top: "fc6"
  param {
    lr_mult: 1
    decay_mult: 1
  }
  param {
    lr_mult: 2
    decay_mult: 0
  }
  inner_product_param {
    num_output: 4096
    weight_filler {
      type: "gaussian"
      std: 0.005
    }
    bias_filler {
      type: "constant"
      value: 1
    }
  }
}
layer {
  name: "relu6"
  type: "ReLU"
  bottom: "fc6"
  top: "fc6"
}
layer {
  name: "drop6"
  type: "Dropout"
  bottom: "fc6"
  top: "fc6"
  dropout_param {
    dropout_ratio: 0.5
  }
}
layer {
  name: "fc7"
  type: "InnerProduct"
  bottom: "fc6"
  top: "fc7"
  param {
    lr_mult: 1
    decay_mult: 1
  }
  param {
    lr_mult: 2
    decay_mult: 0
  }
  inner_product_param {
    num_output: 4096
    weight_filler {
      type: "gaussian"
      std: 0.005
    }
    bias_filler {
      type: "constant"
      value: 1
    }
  }
}
layer {
  name: "relu7"
  type: "ReLU"
  bottom: "fc7"
  top: "fc7"
}
layer {
  name: "drop7"
  type: "Dropout"
  bottom: "fc7"
  top: "fc7"
  dropout_param {
    dropout_ratio: 0.5
  }
}
layer {
  name: "fc8"
  type: "InnerProduct"
  bottom: "fc7"
  top: "fc8"
  param {
    lr_mult: 1
    decay_mult: 1
  }
  param {
    lr_mult: 2
    decay_mult: 0
  }
  inner_product_param {
    num_output: 2
    weight_filler {
      type: "gaussian"
      std: 0.01
    }
    bias_filler {
      type: "constant"
      value: 0
    }
  }
}
layer {
  name: "accuracy"
  type: "Accuracy"
  bottom: "fc8"
  bottom: "label"
  top: "accuracy"
  include {
    phase: TEST
  }
}
layer {
  name: "loss"
  type: "SoftmaxWithLoss"
  bottom: "fc8"
  bottom: "label"
  top: "loss"
}
I1111 10:57:59.311646 25803 layer_factory.hpp:77] Creating layer data
I1111 10:57:59.311702 25803 net.cpp:100] Creating Layer data
I1111 10:57:59.311720 25803 net.cpp:408] data -> data
I1111 10:57:59.311729 25803 net.cpp:408] data -> label
I1111 10:57:59.311738 25803 data_transformer.cpp:25] Loading mean file from: /home/deepglint/deeplearning-cats-dogs-tutorial/input/mean.binaryproto
I1111 10:57:59.312582 25810 db_lmdb.cpp:35] Opened lmdb /home/deepglint/deeplearning-cats-dogs-tutorial/input/validation_lmdb
I1111 10:57:59.313238 25803 data_layer.cpp:41] output data size: 25,3,227,227
I1111 10:57:59.332801 25803 net.cpp:150] Setting up data
I1111 10:57:59.332834 25803 net.cpp:157] Top shape: 25 3 227 227 (3864675)
I1111 10:57:59.332840 25803 net.cpp:157] Top shape: 25 (25)
I1111 10:57:59.332844 25803 net.cpp:165] Memory required for data: 15458800
I1111 10:57:59.332850 25803 layer_factory.hpp:77] Creating layer label_data_1_split
I1111 10:57:59.332862 25803 net.cpp:100] Creating Layer label_data_1_split
I1111 10:57:59.332867 25803 net.cpp:434] label_data_1_split <- label
I1111 10:57:59.332875 25803 net.cpp:408] label_data_1_split -> label_data_1_split_0
I1111 10:57:59.332885 25803 net.cpp:408] label_data_1_split -> label_data_1_split_1
I1111 10:57:59.332924 25803 net.cpp:150] Setting up label_data_1_split
I1111 10:57:59.332931 25803 net.cpp:157] Top shape: 25 (25)
I1111 10:57:59.332936 25803 net.cpp:157] Top shape: 25 (25)
I1111 10:57:59.332939 25803 net.cpp:165] Memory required for data: 15459000
I1111 10:57:59.332943 25803 layer_factory.hpp:77] Creating layer conv1
I1111 10:57:59.332955 25803 net.cpp:100] Creating Layer conv1
I1111 10:57:59.332959 25803 net.cpp:434] conv1 <- data
I1111 10:57:59.332965 25803 net.cpp:408] conv1 -> conv1
I1111 10:57:59.335064 25803 net.cpp:150] Setting up conv1
I1111 10:57:59.335080 25803 net.cpp:157] Top shape: 25 96 55 55 (7260000)
I1111 10:57:59.335085 25803 net.cpp:165] Memory required for data: 44499000
I1111 10:57:59.335095 25803 layer_factory.hpp:77] Creating layer relu1
I1111 10:57:59.335103 25803 net.cpp:100] Creating Layer relu1
I1111 10:57:59.335108 25803 net.cpp:434] relu1 <- conv1
I1111 10:57:59.335114 25803 net.cpp:395] relu1 -> conv1 (in-place)
I1111 10:57:59.335121 25803 net.cpp:150] Setting up relu1
I1111 10:57:59.335126 25803 net.cpp:157] Top shape: 25 96 55 55 (7260000)
I1111 10:57:59.335130 25803 net.cpp:165] Memory required for data: 73539000
I1111 10:57:59.335134 25803 layer_factory.hpp:77] Creating layer pool1
I1111 10:57:59.335140 25803 net.cpp:100] Creating Layer pool1
I1111 10:57:59.335144 25803 net.cpp:434] pool1 <- conv1
I1111 10:57:59.335150 25803 net.cpp:408] pool1 -> pool1
I1111 10:57:59.335178 25803 net.cpp:150] Setting up pool1
I1111 10:57:59.335186 25803 net.cpp:157] Top shape: 25 96 27 27 (1749600)
I1111 10:57:59.335188 25803 net.cpp:165] Memory required for data: 80537400
I1111 10:57:59.335193 25803 layer_factory.hpp:77] Creating layer norm1
I1111 10:57:59.335199 25803 net.cpp:100] Creating Layer norm1
I1111 10:57:59.335204 25803 net.cpp:434] norm1 <- pool1
I1111 10:57:59.335209 25803 net.cpp:408] norm1 -> norm1
I1111 10:57:59.335233 25803 net.cpp:150] Setting up norm1
I1111 10:57:59.335239 25803 net.cpp:157] Top shape: 25 96 27 27 (1749600)
I1111 10:57:59.335242 25803 net.cpp:165] Memory required for data: 87535800
I1111 10:57:59.335247 25803 layer_factory.hpp:77] Creating layer conv2
I1111 10:57:59.335255 25803 net.cpp:100] Creating Layer conv2
I1111 10:57:59.335259 25803 net.cpp:434] conv2 <- norm1
I1111 10:57:59.335265 25803 net.cpp:408] conv2 -> conv2
I1111 10:57:59.343873 25803 net.cpp:150] Setting up conv2
I1111 10:57:59.343932 25803 net.cpp:157] Top shape: 25 256 27 27 (4665600)
I1111 10:57:59.343938 25803 net.cpp:165] Memory required for data: 106198200
I1111 10:57:59.343952 25803 layer_factory.hpp:77] Creating layer relu2
I1111 10:57:59.343963 25803 net.cpp:100] Creating Layer relu2
I1111 10:57:59.343969 25803 net.cpp:434] relu2 <- conv2
I1111 10:57:59.343976 25803 net.cpp:395] relu2 -> conv2 (in-place)
I1111 10:57:59.343986 25803 net.cpp:150] Setting up relu2
I1111 10:57:59.343991 25803 net.cpp:157] Top shape: 25 256 27 27 (4665600)
I1111 10:57:59.343996 25803 net.cpp:165] Memory required for data: 124860600
I1111 10:57:59.343999 25803 layer_factory.hpp:77] Creating layer pool2
I1111 10:57:59.344007 25803 net.cpp:100] Creating Layer pool2
I1111 10:57:59.344012 25803 net.cpp:434] pool2 <- conv2
I1111 10:57:59.344017 25803 net.cpp:408] pool2 -> pool2
I1111 10:57:59.344050 25803 net.cpp:150] Setting up pool2
I1111 10:57:59.344058 25803 net.cpp:157] Top shape: 25 256 13 13 (1081600)
I1111 10:57:59.344063 25803 net.cpp:165] Memory required for data: 129187000
I1111 10:57:59.344066 25803 layer_factory.hpp:77] Creating layer norm2
I1111 10:57:59.344075 25803 net.cpp:100] Creating Layer norm2
I1111 10:57:59.344079 25803 net.cpp:434] norm2 <- pool2
I1111 10:57:59.344085 25803 net.cpp:408] norm2 -> norm2
I1111 10:57:59.344112 25803 net.cpp:150] Setting up norm2
I1111 10:57:59.344118 25803 net.cpp:157] Top shape: 25 256 13 13 (1081600)
I1111 10:57:59.344122 25803 net.cpp:165] Memory required for data: 133513400
I1111 10:57:59.344126 25803 layer_factory.hpp:77] Creating layer conv3
I1111 10:57:59.344138 25803 net.cpp:100] Creating Layer conv3
I1111 10:57:59.344142 25803 net.cpp:434] conv3 <- norm2
I1111 10:57:59.344148 25803 net.cpp:408] conv3 -> conv3
I1111 10:57:59.367964 25803 net.cpp:150] Setting up conv3
I1111 10:57:59.367995 25803 net.cpp:157] Top shape: 25 384 13 13 (1622400)
I1111 10:57:59.368000 25803 net.cpp:165] Memory required for data: 140003000
I1111 10:57:59.368010 25803 layer_factory.hpp:77] Creating layer relu3
I1111 10:57:59.368019 25803 net.cpp:100] Creating Layer relu3
I1111 10:57:59.368024 25803 net.cpp:434] relu3 <- conv3
I1111 10:57:59.368031 25803 net.cpp:395] relu3 -> conv3 (in-place)
I1111 10:57:59.368039 25803 net.cpp:150] Setting up relu3
I1111 10:57:59.368046 25803 net.cpp:157] Top shape: 25 384 13 13 (1622400)
I1111 10:57:59.368048 25803 net.cpp:165] Memory required for data: 146492600
I1111 10:57:59.368052 25803 layer_factory.hpp:77] Creating layer conv4
I1111 10:57:59.368062 25803 net.cpp:100] Creating Layer conv4
I1111 10:57:59.368065 25803 net.cpp:434] conv4 <- conv3
I1111 10:57:59.368072 25803 net.cpp:408] conv4 -> conv4
I1111 10:57:59.386072 25803 net.cpp:150] Setting up conv4
I1111 10:57:59.386101 25803 net.cpp:157] Top shape: 25 384 13 13 (1622400)
I1111 10:57:59.386106 25803 net.cpp:165] Memory required for data: 152982200
I1111 10:57:59.386114 25803 layer_factory.hpp:77] Creating layer relu4
I1111 10:57:59.386123 25803 net.cpp:100] Creating Layer relu4
I1111 10:57:59.386128 25803 net.cpp:434] relu4 <- conv4
I1111 10:57:59.386135 25803 net.cpp:395] relu4 -> conv4 (in-place)
I1111 10:57:59.386144 25803 net.cpp:150] Setting up relu4
I1111 10:57:59.386149 25803 net.cpp:157] Top shape: 25 384 13 13 (1622400)
I1111 10:57:59.386153 25803 net.cpp:165] Memory required for data: 159471800
I1111 10:57:59.386157 25803 layer_factory.hpp:77] Creating layer conv5
I1111 10:57:59.386167 25803 net.cpp:100] Creating Layer conv5
I1111 10:57:59.386170 25803 net.cpp:434] conv5 <- conv4
I1111 10:57:59.386178 25803 net.cpp:408] conv5 -> conv5
I1111 10:57:59.397914 25803 net.cpp:150] Setting up conv5
I1111 10:57:59.397927 25803 net.cpp:157] Top shape: 25 256 13 13 (1081600)
I1111 10:57:59.397931 25803 net.cpp:165] Memory required for data: 163798200
I1111 10:57:59.397941 25803 layer_factory.hpp:77] Creating layer relu5
I1111 10:57:59.397948 25803 net.cpp:100] Creating Layer relu5
I1111 10:57:59.397953 25803 net.cpp:434] relu5 <- conv5
I1111 10:57:59.397964 25803 net.cpp:395] relu5 -> conv5 (in-place)
I1111 10:57:59.397977 25803 net.cpp:150] Setting up relu5
I1111 10:57:59.397982 25803 net.cpp:157] Top shape: 25 256 13 13 (1081600)
I1111 10:57:59.397986 25803 net.cpp:165] Memory required for data: 168124600
I1111 10:57:59.397990 25803 layer_factory.hpp:77] Creating layer pool5
I1111 10:57:59.397997 25803 net.cpp:100] Creating Layer pool5
I1111 10:57:59.398001 25803 net.cpp:434] pool5 <- conv5
I1111 10:57:59.398006 25803 net.cpp:408] pool5 -> pool5
I1111 10:57:59.398036 25803 net.cpp:150] Setting up pool5
I1111 10:57:59.398041 25803 net.cpp:157] Top shape: 25 256 6 6 (230400)
I1111 10:57:59.398046 25803 net.cpp:165] Memory required for data: 169046200
I1111 10:57:59.398049 25803 layer_factory.hpp:77] Creating layer fc6
I1111 10:57:59.398056 25803 net.cpp:100] Creating Layer fc6
I1111 10:57:59.398061 25803 net.cpp:434] fc6 <- pool5
I1111 10:57:59.398066 25803 net.cpp:408] fc6 -> fc6
I1111 10:58:00.347895 25803 net.cpp:150] Setting up fc6
I1111 10:58:00.347931 25803 net.cpp:157] Top shape: 25 4096 (102400)
I1111 10:58:00.347937 25803 net.cpp:165] Memory required for data: 169455800
I1111 10:58:00.347946 25803 layer_factory.hpp:77] Creating layer relu6
I1111 10:58:00.347955 25803 net.cpp:100] Creating Layer relu6
I1111 10:58:00.347961 25803 net.cpp:434] relu6 <- fc6
I1111 10:58:00.347967 25803 net.cpp:395] relu6 -> fc6 (in-place)
I1111 10:58:00.347976 25803 net.cpp:150] Setting up relu6
I1111 10:58:00.347981 25803 net.cpp:157] Top shape: 25 4096 (102400)
I1111 10:58:00.347985 25803 net.cpp:165] Memory required for data: 169865400
I1111 10:58:00.347990 25803 layer_factory.hpp:77] Creating layer drop6
I1111 10:58:00.347996 25803 net.cpp:100] Creating Layer drop6
I1111 10:58:00.348000 25803 net.cpp:434] drop6 <- fc6
I1111 10:58:00.348004 25803 net.cpp:395] drop6 -> fc6 (in-place)
I1111 10:58:00.348026 25803 net.cpp:150] Setting up drop6
I1111 10:58:00.348032 25803 net.cpp:157] Top shape: 25 4096 (102400)
I1111 10:58:00.348036 25803 net.cpp:165] Memory required for data: 170275000
I1111 10:58:00.348039 25803 layer_factory.hpp:77] Creating layer fc7
I1111 10:58:00.348047 25803 net.cpp:100] Creating Layer fc7
I1111 10:58:00.348050 25803 net.cpp:434] fc7 <- fc6
I1111 10:58:00.348057 25803 net.cpp:408] fc7 -> fc7
I1111 10:58:00.774536 25803 net.cpp:150] Setting up fc7
I1111 10:58:00.774571 25803 net.cpp:157] Top shape: 25 4096 (102400)
I1111 10:58:00.774576 25803 net.cpp:165] Memory required for data: 170684600
I1111 10:58:00.774585 25803 layer_factory.hpp:77] Creating layer relu7
I1111 10:58:00.774595 25803 net.cpp:100] Creating Layer relu7
I1111 10:58:00.774600 25803 net.cpp:434] relu7 <- fc7
I1111 10:58:00.774607 25803 net.cpp:395] relu7 -> fc7 (in-place)
I1111 10:58:00.774616 25803 net.cpp:150] Setting up relu7
I1111 10:58:00.774621 25803 net.cpp:157] Top shape: 25 4096 (102400)
I1111 10:58:00.774626 25803 net.cpp:165] Memory required for data: 171094200
I1111 10:58:00.774629 25803 layer_factory.hpp:77] Creating layer drop7
I1111 10:58:00.774636 25803 net.cpp:100] Creating Layer drop7
I1111 10:58:00.774639 25803 net.cpp:434] drop7 <- fc7
I1111 10:58:00.774644 25803 net.cpp:395] drop7 -> fc7 (in-place)
I1111 10:58:00.774667 25803 net.cpp:150] Setting up drop7
I1111 10:58:00.774672 25803 net.cpp:157] Top shape: 25 4096 (102400)
I1111 10:58:00.774677 25803 net.cpp:165] Memory required for data: 171503800
I1111 10:58:00.774680 25803 layer_factory.hpp:77] Creating layer fc8
I1111 10:58:00.774688 25803 net.cpp:100] Creating Layer fc8
I1111 10:58:00.774691 25803 net.cpp:434] fc8 <- fc7
I1111 10:58:00.774698 25803 net.cpp:408] fc8 -> fc8
I1111 10:58:00.775032 25803 net.cpp:150] Setting up fc8
I1111 10:58:00.775040 25803 net.cpp:157] Top shape: 25 2 (50)
I1111 10:58:00.775044 25803 net.cpp:165] Memory required for data: 171504000
I1111 10:58:00.775050 25803 layer_factory.hpp:77] Creating layer fc8_fc8_0_split
I1111 10:58:00.775056 25803 net.cpp:100] Creating Layer fc8_fc8_0_split
I1111 10:58:00.775060 25803 net.cpp:434] fc8_fc8_0_split <- fc8
I1111 10:58:00.775065 25803 net.cpp:408] fc8_fc8_0_split -> fc8_fc8_0_split_0
I1111 10:58:00.775080 25803 net.cpp:408] fc8_fc8_0_split -> fc8_fc8_0_split_1
I1111 10:58:00.775113 25803 net.cpp:150] Setting up fc8_fc8_0_split
I1111 10:58:00.775120 25803 net.cpp:157] Top shape: 25 2 (50)
I1111 10:58:00.775125 25803 net.cpp:157] Top shape: 25 2 (50)
I1111 10:58:00.775127 25803 net.cpp:165] Memory required for data: 171504400
I1111 10:58:00.775131 25803 layer_factory.hpp:77] Creating layer accuracy
I1111 10:58:00.775138 25803 net.cpp:100] Creating Layer accuracy
I1111 10:58:00.775142 25803 net.cpp:434] accuracy <- fc8_fc8_0_split_0
I1111 10:58:00.775147 25803 net.cpp:434] accuracy <- label_data_1_split_0
I1111 10:58:00.775152 25803 net.cpp:408] accuracy -> accuracy
…
