…
I1110 12:46:52.897562  1307 net.cpp:322] The NetState phase (0) differed from the phase (1) specified by a rule in layer mnist
I1110 12:46:52.897572  1307 net.cpp:322] The NetState phase (0) differed from the phase (1) specified by a rule in layer accuracy
I1110 12:46:52.897606  1307 net.cpp:58] Initializing net from parameters: 
name: "LeNet"
state {
  phase: TRAIN
  level: 0
  stage: ""
}
layer {
  name: "mnist"
  type: "Data"
  top: "data"
  top: "label"
  include {
    phase: TRAIN
  }
  transform_param {
    scale: 0.00390625
  }
  data_param {
    source: "/home/deepglint/caffe/examples/mnist/mnist_train_lmdb"
    batch_size: 64
    backend: LMDB
  }
}
layer {
  name: "ip"
  type: "InnerProduct"
  bottom: "data"
  top: "ip"
  param {
    lr_mult: 1
  }
  param {
    lr_mult: 2
  }
  inner_product_param {
    num_output: 10
    weight_filler {
      type: "xavier"
    }
    bias_filler {
      type: "constant"
    }
  }
}
layer {
  name: "loss"
  type: "SoftmaxWithLoss"
  bottom: "ip"
  bottom: "label"
  top: "loss"
}
I1110 12:46:52.897641  1307 layer_factory.hpp:77] Creating layer mnist
I1110 12:46:52.898077  1307 net.cpp:100] Creating Layer mnist
I1110 12:46:52.898089  1307 net.cpp:408] mnist -> data
I1110 12:46:52.898109  1307 net.cpp:408] mnist -> label
I1110 12:46:52.898169  1310 db_lmdb.cpp:35] Opened lmdb /home/deepglint/caffe/examples/mnist/mnist_train_lmdb
I1110 12:46:52.898211  1307 data_layer.cpp:41] output data size: 64,1,28,28
I1110 12:46:52.898308  1307 net.cpp:150] Setting up mnist
I1110 12:46:52.898319  1307 net.cpp:157] Top shape: 64 1 28 28 (50176)
I1110 12:46:52.898325  1307 net.cpp:157] Top shape: 64 (64)
I1110 12:46:52.898330  1307 net.cpp:165] Memory required for data: 200960
I1110 12:46:52.898337  1307 layer_factory.hpp:77] Creating layer ip
I1110 12:46:52.898351  1307 net.cpp:100] Creating Layer ip
I1110 12:46:52.898357  1307 net.cpp:434] ip <- data
I1110 12:46:52.898367  1307 net.cpp:408] ip -> ip
I1110 12:46:52.898442  1307 net.cpp:150] Setting up ip
I1110 12:46:52.898457  1307 net.cpp:157] Top shape: 64 10 (640)
I1110 12:46:52.898466  1307 net.cpp:165] Memory required for data: 203520
I1110 12:46:52.898480  1307 layer_factory.hpp:77] Creating layer loss
I1110 12:46:52.898490  1307 net.cpp:100] Creating Layer loss
I1110 12:46:52.898500  1307 net.cpp:434] loss <- ip
I1110 12:46:52.898509  1307 net.cpp:434] loss <- label
I1110 12:46:52.898517  1307 net.cpp:408] loss -> loss
I1110 12:46:52.898532  1307 layer_factory.hpp:77] Creating layer loss
…
I1110 12:46:52.898737  1307 solver.cpp:181] Creating test net (#0) specified by net file: /home/deepglint/caffe/ych/lenet_LR.prototxt
I1110 12:46:52.898753  1307 net.cpp:322] The NetState phase (1) differed from the phase (0) specified by a rule in layer mnist
I1110 12:46:52.898790  1307 net.cpp:58] Initializing net from parameters: 
name: "LeNet"
state {
  phase: TEST
}
layer {
  name: "mnist"
  type: "Data"
  top: "data"
  top: "label"
  include {
    phase: TEST
  }
  transform_param {
    scale: 0.00390625
  }
  data_param {
    source: "/home/deepglint/caffe/examples/mnist/mnist_test_lmdb"
    batch_size: 100
    backend: LMDB
  }
}
layer {
  name: "ip"
  type: "InnerProduct"
  bottom: "data"
  top: "ip"
  param {
    lr_mult: 1
  }
  param {
    lr_mult: 2
  }
  inner_product_param {
    num_output: 10
    weight_filler {
      type: "xavier"
    }
    bias_filler {
      type: "constant"
    }
  }
}
layer {
  name: "accuracy"
  type: "Accuracy"
  bottom: "ip"
  bottom: "label"
  top: "accuracy"
  include {
    phase: TEST
  }
}
layer {
  name: "loss"
  type: "SoftmaxWithLoss"
  bottom: "ip"
  bottom: "label"
  top: "loss"
}
I1110 12:46:52.898836  1307 layer_factory.hpp:77] Creating layer mnist
I1110 12:46:52.898911  1307 net.cpp:100] Creating Layer mnist
I1110 12:46:52.898922  1307 net.cpp:408] mnist -> data
I1110 12:46:52.898937  1307 net.cpp:408] mnist -> label
I1110 12:46:52.898960  1312 db_lmdb.cpp:35] Opened lmdb /home/deepglint/caffe/examples/mnist/mnist_test_lmdb
I1110 12:46:52.898988  1307 data_layer.cpp:41] output data size: 100,1,28,28
I1110 12:46:52.899161  1307 net.cpp:150] Setting up mnist
I1110 12:46:52.899171  1307 net.cpp:157] Top shape: 100 1 28 28 (78400)
I1110 12:46:52.899178  1307 net.cpp:157] Top shape: 100 (100)
I1110 12:46:52.899183  1307 net.cpp:165] Memory required for data: 314000
I1110 12:46:52.899193  1307 layer_factory.hpp:77] Creating layer label_mnist_1_split
I1110 12:46:52.899209  1307 net.cpp:100] Creating Layer label_mnist_1_split
I1110 12:46:52.899216  1307 net.cpp:434] label_mnist_1_split <- label
I1110 12:46:52.899233  1307 net.cpp:408] label_mnist_1_split -> label_mnist_1_split_0
I1110 12:46:52.899242  1307 net.cpp:408] label_mnist_1_split -> label_mnist_1_split_1
I1110 12:46:52.899252  1307 net.cpp:150] Setting up label_mnist_1_split
I1110 12:46:52.899261  1307 net.cpp:157] Top shape: 100 (100)
I1110 12:46:52.899268  1307 net.cpp:157] Top shape: 100 (100)
I1110 12:46:52.899282  1307 net.cpp:165] Memory required for data: 314800
I1110 12:46:52.899287  1307 layer_factory.hpp:77] Creating layer ip
I1110 12:46:52.899297  1307 net.cpp:100] Creating Layer ip
I1110 12:46:52.899307  1307 net.cpp:434] ip <- data
I1110 12:46:52.899317  1307 net.cpp:408] ip -> ip
I1110 12:46:52.899380  1307 net.cpp:150] Setting up ip
I1110 12:46:52.899389  1307 net.cpp:157] Top shape: 100 10 (1000)
I1110 12:46:52.899397  1307 net.cpp:165] Memory required for data: 318800
I1110 12:46:52.899407  1307 layer_factory.hpp:77] Creating layer ip_ip_0_split
I1110 12:46:52.899415  1307 net.cpp:100] Creating Layer ip_ip_0_split
I1110 12:46:52.899418  1307 net.cpp:434] ip_ip_0_split <- ip
I1110 12:46:52.899428  1307 net.cpp:408] ip_ip_0_split -> ip_ip_0_split_0
I1110 12:46:52.899436  1307 net.cpp:408] ip_ip_0_split -> ip_ip_0_split_1
I1110 12:46:52.899447  1307 net.cpp:150] Setting up ip_ip_0_split
I1110 12:46:52.899453  1307 net.cpp:157] Top shape: 100 10 (1000)
I1110 12:46:52.899459  1307 net.cpp:157] Top shape: 100 10 (1000)
I1110 12:46:52.899466  1307 net.cpp:165] Memory required for data: 326800
I1110 12:46:52.899469  1307 layer_factory.hpp:77] Creating layer accuracy
I1110 12:46:52.899480  1307 net.cpp:100] Creating Layer accuracy
I1110 12:46:52.899485  1307 net.cpp:434] accuracy <- ip_ip_0_split_0
I1110 12:46:52.899492  1307 net.cpp:434] accuracy <- label_mnist_1_split_0
I1110 12:46:52.899505  1307 net.cpp:408] accuracy -> accuracy
…
