…
I1119 12:43:56.863415  3204 net.cpp:322] The NetState phase (0) differed from the phase (1) specified by a rule in layer accuracy
I1119 12:43:56.863554  3204 net.cpp:58] Initializing net from parameters: 
name: "CaffeNet"
state {
  phase: TRAIN
  level: 0
  stage: ""
}
layer {
  name: "data"
  type: "Data"
  top: "data"
  top: "label"
  include {
    phase: TRAIN
  }
  transform_param {
    mirror: true
    crop_size: 227
    mean_file: "/home/deepglint/imgclassify/mean.binaryproto"
  }
  data_param {
    source: "/home/deepglint/imgclassify/img_train_lmdb"
    batch_size: 256
    backend: LMDB
  }
}
layer {
  name: "conv1"
  type: "Convolution"
  bottom: "data"
  top: "conv1"
  param {
    lr_mult: 1
    decay_mult: 1
  }
  param {
    lr_mult: 2
    decay_mult: 0
  }
  convolution_param {
    num_output: 96
    kernel_size: 11
    stride: 4
    weight_filler {
      type: "gaussian"
      std: 0.01
    }
    bias_filler {
      type: "constant"
      value: 0
    }
  }
}
layer {
  name: "relu1"
  type: "ReLU"
  bottom: "conv1"
  top: "conv1"
}
layer {
  name: "pool1"
  type: "Pooling"
  bottom: "conv1"
  top: "pool1"
  pooling_param {
    pool: MAX
    kernel_size: 3
    stride: 2
  }
}
layer {
  name: "norm1"
  type: "LRN"
  bottom: "pool1"
  top: "norm1"
  lrn_param {
    local_size: 5
    alpha: 0.0001
    beta: 0.75
  }
}
layer {
  name: "conv2"
  type: "Convolution"
  bottom: "norm1"
  top: "conv2"
  param {
    lr_mult: 1
    decay_mult: 1
  }
  param {
    lr_mult: 2
    decay_mult: 0
  }
  convolution_param {
    num_output: 256
    pad: 2
    kernel_size: 5
    group: 2
    weight_filler {
      type: "gaussian"
      std: 0.01
    }
    bias_filler {
      type: "constant"
      value: 1
    }
  }
}
layer {
  name: "relu2"
  type: "ReLU"
  bottom: "conv2"
  top: "conv2"
}
layer {
  name: "pool2"
  type: "Pooling"
  bottom: "conv2"
  top: "pool2"
  pooling_param {
    pool: MAX
    kernel_size: 3
    stride: 2
  }
}
layer {
  name: "norm2"
  type: "LRN"
  bottom: "pool2"
  top: "norm2"
  lrn_param {
    local_size: 5
    alpha: 0.0001
    beta: 0.75
  }
}
layer {
  name: "conv3"
  type: "Convolution"
  bottom: "norm2"
  top: "conv3"
  param {
    lr_mult: 1
    decay_mult: 1
  }
  param {
    lr_mult: 2
    decay_mult: 0
  }
  convolution_param {
    num_output: 384
    pad: 1
    kernel_size: 3
    weight_filler {
      type: "gaussian"
      std: 0.01
    }
    bias_filler {
      type: "constant"
      value: 0
    }
  }
}
layer {
  name: "relu3"
  type: "ReLU"
  bottom: "conv3"
  top: "conv3"
}
layer {
  name: "conv4"
  type: "Convolution"
  bottom: "conv3"
  top: "conv4"
  param {
    lr_mult: 1
    decay_mult: 1
  }
  param {
    lr_mult: 2
    decay_mult: 0
  }
  convolution_param {
    num_output: 384
    pad: 1
    kernel_size: 3
    group: 2
    weight_filler {
      type: "gaussian"
      std: 0.01
    }
    bias_filler {
      type: "constant"
      value: 1
    }
  }
}
layer {
  name: "relu4"
  type: "ReLU"
  bottom: "conv4"
  top: "conv4"
}
layer {
  name: "conv5"
  type: "Convolution"
  bottom: "conv4"
  top: "conv5"
  param {
    lr_mult: 1
    decay_mult: 1
  }
  param {
    lr_mult: 2
    decay_mult: 0
  }
  convolution_param {
    num_output: 256
    pad: 1
    kernel_size: 3
    group: 2
    weight_filler {
      type: "gaussian"
      std: 0.01
    }
    bias_filler {
      type: "constant"
      value: 1
    }
  }
}
layer {
  name: "relu5"
  type: "ReLU"
  bottom: "conv5"
  top: "conv5"
}
layer {
  name: "pool5"
  type: "Pooling"
  bottom: "conv5"
  top: "pool5"
  pooling_param {
    pool: MAX
    kernel_size: 3
    stride: 2
  }
}
layer {
  name: "fc6"
  type: "InnerProduct"
  bottom: "pool5"
  top: "fc6"
  param {
    lr_mult: 1
    decay_mult: 1
  }
  param {
    lr_mult: 2
    decay_mult: 0
  }
  inner_product_param {
    num_output: 4096
    weight_filler {
      type: "gaussian"
      std: 0.005
    }
    bias_filler {
      type: "constant"
      value: 1
    }
  }
}
layer {
  name: "relu6"
  type: "ReLU"
  bottom: "fc6"
  top: "fc6"
}
layer {
  name: "drop6"
  type: "Dropout"
  bottom: "fc6"
  top: "fc6"
  dropout_param {
    dropout_ratio: 0.5
  }
}
layer {
  name: "fc7"
  type: "InnerProduct"
  bottom: "fc6"
  top: "fc7"
  param {
    lr_mult: 1
    decay_mult: 1
  }
  param {
    lr_mult: 2
    decay_mult: 0
  }
  inner_product_param {
    num_output: 4096
    weight_filler {
      type: "gaussian"
      std: 0.005
    }
    bias_filler {
      type: "constant"
      value: 1
    }
  }
}
layer {
  name: "relu7"
  type: "ReLU"
  bottom: "fc7"
  top: "fc7"
}
layer {
  name: "drop7"
  type: "Dropout"
  bottom: "fc7"
  top: "fc7"
  dropout_param {
    dropout_ratio: 0.5
  }
}
layer {
  name: "fc8"
  type: "InnerProduct"
  bottom: "fc7"
  top: "fc8"
  param {
    lr_mult: 1
    decay_mult: 1
  }
  param {
    lr_mult: 2
    decay_mult: 0
  }
  inner_product_param {
    num_output: 5
    weight_filler {
      type: "gaussian"
      std: 0.01
    }
    bias_filler {
      type: "constant"
      value: 0
    }
  }
}
layer {
  name: "loss"
  type: "SoftmaxWithLoss"
  bottom: "fc8"
  bottom: "label"
  top: "loss"
}
I1119 12:43:56.863651  3204 layer_factory.hpp:77] Creating layer data
I1119 12:43:56.864174  3204 net.cpp:100] Creating Layer data
I1119 12:43:56.864187  3204 net.cpp:408] data -> data
I1119 12:43:56.864203  3204 net.cpp:408] data -> label
I1119 12:43:56.864213  3204 data_transformer.cpp:25] Loading mean file from: /home/deepglint/imgclassify/mean.binaryproto
I1119 12:43:56.865039  3209 db_lmdb.cpp:35] Opened lmdb /home/deepglint/imgclassify/img_train_lmdb
I1119 12:43:56.873713  3204 data_layer.cpp:41] output data size: 256,3,227,227
I1119 12:43:57.064296  3204 net.cpp:150] Setting up data
I1119 12:43:57.064334  3204 net.cpp:157] Top shape: 256 3 227 227 (39574272)
I1119 12:43:57.064340  3204 net.cpp:157] Top shape: 256 (256)
I1119 12:43:57.064344  3204 net.cpp:165] Memory required for data: 158298112
I1119 12:43:57.064353  3204 layer_factory.hpp:77] Creating layer conv1
I1119 12:43:57.064374  3204 net.cpp:100] Creating Layer conv1
I1119 12:43:57.064379  3204 net.cpp:434] conv1 <- data
I1119 12:43:57.064390  3204 net.cpp:408] conv1 -> conv1
I1119 12:43:57.078279  3204 net.cpp:150] Setting up conv1
I1119 12:43:57.078299  3204 net.cpp:157] Top shape: 256 96 55 55 (74342400)
I1119 12:43:57.078302  3204 net.cpp:165] Memory required for data: 455667712
I1119 12:43:57.078316  3204 layer_factory.hpp:77] Creating layer relu1
I1119 12:43:57.078325  3204 net.cpp:100] Creating Layer relu1
I1119 12:43:57.078330  3204 net.cpp:434] relu1 <- conv1
I1119 12:43:57.078346  3204 net.cpp:395] relu1 -> conv1 (in-place)
I1119 12:43:57.078361  3204 net.cpp:150] Setting up relu1
I1119 12:43:57.078366  3204 net.cpp:157] Top shape: 256 96 55 55 (74342400)
I1119 12:43:57.078369  3204 net.cpp:165] Memory required for data: 753037312
I1119 12:43:57.078372  3204 layer_factory.hpp:77] Creating layer pool1
I1119 12:43:57.078379  3204 net.cpp:100] Creating Layer pool1
I1119 12:43:57.078383  3204 net.cpp:434] pool1 <- conv1
I1119 12:43:57.078388  3204 net.cpp:408] pool1 -> pool1
I1119 12:43:57.078428  3204 net.cpp:150] Setting up pool1
I1119 12:43:57.078445  3204 net.cpp:157] Top shape: 256 96 27 27 (17915904)
I1119 12:43:57.078449  3204 net.cpp:165] Memory required for data: 824700928
I1119 12:43:57.078452  3204 layer_factory.hpp:77] Creating layer norm1
I1119 12:43:57.078466  3204 net.cpp:100] Creating Layer norm1
I1119 12:43:57.078476  3204 net.cpp:434] norm1 <- pool1
I1119 12:43:57.078482  3204 net.cpp:408] norm1 -> norm1
I1119 12:43:57.078512  3204 net.cpp:150] Setting up norm1
I1119 12:43:57.078518  3204 net.cpp:157] Top shape: 256 96 27 27 (17915904)
I1119 12:43:57.078522  3204 net.cpp:165] Memory required for data: 896364544
I1119 12:43:57.078526  3204 layer_factory.hpp:77] Creating layer conv2
I1119 12:43:57.078534  3204 net.cpp:100] Creating Layer conv2
I1119 12:43:57.078538  3204 net.cpp:434] conv2 <- norm1
I1119 12:43:57.078543  3204 net.cpp:408] conv2 -> conv2
I1119 12:43:57.087821  3204 net.cpp:150] Setting up conv2
I1119 12:43:57.087851  3204 net.cpp:157] Top shape: 256 256 27 27 (47775744)
I1119 12:43:57.087854  3204 net.cpp:165] Memory required for data: 1087467520
I1119 12:43:57.087867  3204 layer_factory.hpp:77] Creating layer relu2
I1119 12:43:57.087877  3204 net.cpp:100] Creating Layer relu2
I1119 12:43:57.087880  3204 net.cpp:434] relu2 <- conv2
I1119 12:43:57.087887  3204 net.cpp:395] relu2 -> conv2 (in-place)
I1119 12:43:57.087895  3204 net.cpp:150] Setting up relu2
I1119 12:43:57.087900  3204 net.cpp:157] Top shape: 256 256 27 27 (47775744)
I1119 12:43:57.087903  3204 net.cpp:165] Memory required for data: 1278570496
I1119 12:43:57.087908  3204 layer_factory.hpp:77] Creating layer pool2
I1119 12:43:57.087913  3204 net.cpp:100] Creating Layer pool2
I1119 12:43:57.087916  3204 net.cpp:434] pool2 <- conv2
I1119 12:43:57.087921  3204 net.cpp:408] pool2 -> pool2
I1119 12:43:57.087954  3204 net.cpp:150] Setting up pool2
I1119 12:43:57.087960  3204 net.cpp:157] Top shape: 256 256 13 13 (11075584)
I1119 12:43:57.087963  3204 net.cpp:165] Memory required for data: 1322872832
I1119 12:43:57.087967  3204 layer_factory.hpp:77] Creating layer norm2
I1119 12:43:57.087975  3204 net.cpp:100] Creating Layer norm2
I1119 12:43:57.087980  3204 net.cpp:434] norm2 <- pool2
I1119 12:43:57.087985  3204 net.cpp:408] norm2 -> norm2
I1119 12:43:57.088007  3204 net.cpp:150] Setting up norm2
I1119 12:43:57.088013  3204 net.cpp:157] Top shape: 256 256 13 13 (11075584)
I1119 12:43:57.088016  3204 net.cpp:165] Memory required for data: 1367175168
I1119 12:43:57.088021  3204 layer_factory.hpp:77] Creating layer conv3
I1119 12:43:57.088029  3204 net.cpp:100] Creating Layer conv3
I1119 12:43:57.088032  3204 net.cpp:434] conv3 <- norm2
I1119 12:43:57.088038  3204 net.cpp:408] conv3 -> conv3
I1119 12:43:57.112645  3204 net.cpp:150] Setting up conv3
I1119 12:43:57.112675  3204 net.cpp:157] Top shape: 256 384 13 13 (16613376)
I1119 12:43:57.112679  3204 net.cpp:165] Memory required for data: 1433628672
I1119 12:43:57.112691  3204 layer_factory.hpp:77] Creating layer relu3
I1119 12:43:57.112699  3204 net.cpp:100] Creating Layer relu3
I1119 12:43:57.112704  3204 net.cpp:434] relu3 <- conv3
I1119 12:43:57.112710  3204 net.cpp:395] relu3 -> conv3 (in-place)
I1119 12:43:57.112718  3204 net.cpp:150] Setting up relu3
I1119 12:43:57.112722  3204 net.cpp:157] Top shape: 256 384 13 13 (16613376)
I1119 12:43:57.112726  3204 net.cpp:165] Memory required for data: 1500082176
I1119 12:43:57.112730  3204 layer_factory.hpp:77] Creating layer conv4
I1119 12:43:57.112738  3204 net.cpp:100] Creating Layer conv4
I1119 12:43:57.112742  3204 net.cpp:434] conv4 <- conv3
I1119 12:43:57.112748  3204 net.cpp:408] conv4 -> conv4
I1119 12:43:57.131399  3204 net.cpp:150] Setting up conv4
I1119 12:43:57.131428  3204 net.cpp:157] Top shape: 256 384 13 13 (16613376)
I1119 12:43:57.131433  3204 net.cpp:165] Memory required for data: 1566535680
I1119 12:43:57.131440  3204 layer_factory.hpp:77] Creating layer relu4
I1119 12:43:57.131449  3204 net.cpp:100] Creating Layer relu4
I1119 12:43:57.131454  3204 net.cpp:434] relu4 <- conv4
I1119 12:43:57.131460  3204 net.cpp:395] relu4 -> conv4 (in-place)
I1119 12:43:57.131469  3204 net.cpp:150] Setting up relu4
I1119 12:43:57.131472  3204 net.cpp:157] Top shape: 256 384 13 13 (16613376)
I1119 12:43:57.131476  3204 net.cpp:165] Memory required for data: 1632989184
I1119 12:43:57.131489  3204 layer_factory.hpp:77] Creating layer conv5
I1119 12:43:57.131505  3204 net.cpp:100] Creating Layer conv5
I1119 12:43:57.131508  3204 net.cpp:434] conv5 <- conv4
I1119 12:43:57.131515  3204 net.cpp:408] conv5 -> conv5
I1119 12:43:57.144062  3204 net.cpp:150] Setting up conv5
I1119 12:43:57.144093  3204 net.cpp:157] Top shape: 256 256 13 13 (11075584)
I1119 12:43:57.144096  3204 net.cpp:165] Memory required for data: 1677291520
I1119 12:43:57.144109  3204 layer_factory.hpp:77] Creating layer relu5
I1119 12:43:57.144117  3204 net.cpp:100] Creating Layer relu5
I1119 12:43:57.144122  3204 net.cpp:434] relu5 <- conv5
I1119 12:43:57.144129  3204 net.cpp:395] relu5 -> conv5 (in-place)
I1119 12:43:57.144136  3204 net.cpp:150] Setting up relu5
I1119 12:43:57.144140  3204 net.cpp:157] Top shape: 256 256 13 13 (11075584)
I1119 12:43:57.144145  3204 net.cpp:165] Memory required for data: 1721593856
I1119 12:43:57.144147  3204 layer_factory.hpp:77] Creating layer pool5
I1119 12:43:57.144153  3204 net.cpp:100] Creating Layer pool5
I1119 12:43:57.144157  3204 net.cpp:434] pool5 <- conv5
I1119 12:43:57.144162  3204 net.cpp:408] pool5 -> pool5
I1119 12:43:57.144191  3204 net.cpp:150] Setting up pool5
I1119 12:43:57.144197  3204 net.cpp:157] Top shape: 256 256 6 6 (2359296)
I1119 12:43:57.144201  3204 net.cpp:165] Memory required for data: 1731031040
I1119 12:43:57.144204  3204 layer_factory.hpp:77] Creating layer fc6
I1119 12:43:57.144213  3204 net.cpp:100] Creating Layer fc6
I1119 12:43:57.144217  3204 net.cpp:434] fc6 <- pool5
I1119 12:43:57.144222  3204 net.cpp:408] fc6 -> fc6
I1119 12:43:58.108644  3204 net.cpp:150] Setting up fc6
I1119 12:43:58.108682  3204 net.cpp:157] Top shape: 256 4096 (1048576)
I1119 12:43:58.108688  3204 net.cpp:165] Memory required for data: 1735225344
I1119 12:43:58.108698  3204 layer_factory.hpp:77] Creating layer relu6
I1119 12:43:58.108708  3204 net.cpp:100] Creating Layer relu6
I1119 12:43:58.108713  3204 net.cpp:434] relu6 <- fc6
I1119 12:43:58.108719  3204 net.cpp:395] relu6 -> fc6 (in-place)
I1119 12:43:58.108729  3204 net.cpp:150] Setting up relu6
I1119 12:43:58.108733  3204 net.cpp:157] Top shape: 256 4096 (1048576)
I1119 12:43:58.108737  3204 net.cpp:165] Memory required for data: 1739419648
I1119 12:43:58.108741  3204 layer_factory.hpp:77] Creating layer drop6
I1119 12:43:58.108748  3204 net.cpp:100] Creating Layer drop6
I1119 12:43:58.108752  3204 net.cpp:434] drop6 <- fc6
I1119 12:43:58.108757  3204 net.cpp:395] drop6 -> fc6 (in-place)
I1119 12:43:58.108777  3204 net.cpp:150] Setting up drop6
I1119 12:43:58.108783  3204 net.cpp:157] Top shape: 256 4096 (1048576)
I1119 12:43:58.108786  3204 net.cpp:165] Memory required for data: 1743613952
I1119 12:43:58.108790  3204 layer_factory.hpp:77] Creating layer fc7
I1119 12:43:58.108798  3204 net.cpp:100] Creating Layer fc7
I1119 12:43:58.108801  3204 net.cpp:434] fc7 <- fc6
I1119 12:43:58.108806  3204 net.cpp:408] fc7 -> fc7
I1119 12:43:58.526855  3204 net.cpp:150] Setting up fc7
I1119 12:43:58.526890  3204 net.cpp:157] Top shape: 256 4096 (1048576)
I1119 12:43:58.526897  3204 net.cpp:165] Memory required for data: 1747808256
I1119 12:43:58.526907  3204 layer_factory.hpp:77] Creating layer relu7
I1119 12:43:58.526917  3204 net.cpp:100] Creating Layer relu7
I1119 12:43:58.526922  3204 net.cpp:434] relu7 <- fc7
I1119 12:43:58.526929  3204 net.cpp:395] relu7 -> fc7 (in-place)
I1119 12:43:58.526938  3204 net.cpp:150] Setting up relu7
I1119 12:43:58.526943  3204 net.cpp:157] Top shape: 256 4096 (1048576)
I1119 12:43:58.526947  3204 net.cpp:165] Memory required for data: 1752002560
I1119 12:43:58.526952  3204 layer_factory.hpp:77] Creating layer drop7
I1119 12:43:58.526958  3204 net.cpp:100] Creating Layer drop7
I1119 12:43:58.526962  3204 net.cpp:434] drop7 <- fc7
I1119 12:43:58.526968  3204 net.cpp:395] drop7 -> fc7 (in-place)
I1119 12:43:58.526985  3204 net.cpp:150] Setting up drop7
I1119 12:43:58.526990  3204 net.cpp:157] Top shape: 256 4096 (1048576)
I1119 12:43:58.526994  3204 net.cpp:165] Memory required for data: 1756196864
I1119 12:43:58.527006  3204 layer_factory.hpp:77] Creating layer fc8
I1119 12:43:58.527020  3204 net.cpp:100] Creating Layer fc8
I1119 12:43:58.527024  3204 net.cpp:434] fc8 <- fc7
I1119 12:43:58.527029  3204 net.cpp:408] fc8 -> fc8
I1119 12:43:58.527602  3204 net.cpp:150] Setting up fc8
I1119 12:43:58.527609  3204 net.cpp:157] Top shape: 256 5 (1280)
I1119 12:43:58.527613  3204 net.cpp:165] Memory required for data: 1756201984
I1119 12:43:58.527619  3204 layer_factory.hpp:77] Creating layer loss
I1119 12:43:58.527626  3204 net.cpp:100] Creating Layer loss
I1119 12:43:58.527629  3204 net.cpp:434] loss <- fc8
I1119 12:43:58.527633  3204 net.cpp:434] loss <- label
I1119 12:43:58.527640  3204 net.cpp:408] loss -> loss
I1119 12:43:58.527659  3204 layer_factory.hpp:77] Creating layer loss
…
I1119 12:43:58.528491  3204 net.cpp:322] The NetState phase (1) differed from the phase (0) specified by a rule in layer data
I1119 12:43:58.528645  3204 net.cpp:58] Initializing net from parameters: 
name: "CaffeNet"
state {
  phase: TEST
}
layer {
  name: "data"
  type: "Data"
  top: "data"
  top: "label"
  include {
    phase: TEST
  }
  transform_param {
    mirror: false
    crop_size: 227
    mean_file: "/home/deepglint/imgclassify/mean.binaryproto"
  }
  data_param {
    source: "/home/deepglint/imgclassify/img_test_lmdb"
    batch_size: 50
    backend: LMDB
  }
}
layer {
  name: "conv1"
  type: "Convolution"
  bottom: "data"
  top: "conv1"
  param {
    lr_mult: 1
    decay_mult: 1
  }
  param {
    lr_mult: 2
    decay_mult: 0
  }
  convolution_param {
    num_output: 96
    kernel_size: 11
    stride: 4
    weight_filler {
      type: "gaussian"
      std: 0.01
    }
    bias_filler {
      type: "constant"
      value: 0
    }
  }
}
layer {
  name: "relu1"
  type: "ReLU"
  bottom: "conv1"
  top: "conv1"
}
layer {
  name: "pool1"
  type: "Pooling"
  bottom: "conv1"
  top: "pool1"
  pooling_param {
    pool: MAX
    kernel_size: 3
    stride: 2
  }
}
layer {
  name: "norm1"
  type: "LRN"
  bottom: "pool1"
  top: "norm1"
  lrn_param {
    local_size: 5
    alpha: 0.0001
    beta: 0.75
  }
}
layer {
  name: "conv2"
  type: "Convolution"
  bottom: "norm1"
  top: "conv2"
  param {
    lr_mult: 1
    decay_mult: 1
  }
  param {
    lr_mult: 2
    decay_mult: 0
  }
  convolution_param {
    num_output: 256
    pad: 2
    kernel_size: 5
    group: 2
    weight_filler {
      type: "gaussian"
      std: 0.01
    }
    bias_filler {
      type: "constant"
      value: 1
    }
  }
}
layer {
  name: "relu2"
  type: "ReLU"
  bottom: "conv2"
  top: "conv2"
}
layer {
  name: "pool2"
  type: "Pooling"
  bottom: "conv2"
  top: "pool2"
  pooling_param {
    pool: MAX
    kernel_size: 3
    stride: 2
  }
}
layer {
  name: "norm2"
  type: "LRN"
  bottom: "pool2"
  top: "norm2"
  lrn_param {
    local_size: 5
    alpha: 0.0001
    beta: 0.75
  }
}
layer {
  name: "conv3"
  type: "Convolution"
  bottom: "norm2"
  top: "conv3"
  param {
    lr_mult: 1
    decay_mult: 1
  }
  param {
    lr_mult: 2
    decay_mult: 0
  }
  convolution_param {
    num_output: 384
    pad: 1
    kernel_size: 3
    weight_filler {
      type: "gaussian"
      std: 0.01
    }
    bias_filler {
      type: "constant"
      value: 0
    }
  }
}
layer {
  name: "relu3"
  type: "ReLU"
  bottom: "conv3"
  top: "conv3"
}
layer {
  name: "conv4"
  type: "Convolution"
  bottom: "conv3"
  top: "conv4"
  param {
    lr_mult: 1
    decay_mult: 1
  }
  param {
    lr_mult: 2
    decay_mult: 0
  }
  convolution_param {
    num_output: 384
    pad: 1
    kernel_size: 3
    group: 2
    weight_filler {
      type: "gaussian"
      std: 0.01
    }
    bias_filler {
      type: "constant"
      value: 1
    }
  }
}
layer {
  name: "relu4"
  type: "ReLU"
  bottom: "conv4"
  top: "conv4"
}
layer {
  name: "conv5"
  type: "Convolution"
  bottom: "conv4"
  top: "conv5"
  param {
    lr_mult: 1
    decay_mult: 1
  }
  param {
    lr_mult: 2
    decay_mult: 0
  }
  convolution_param {
    num_output: 256
    pad: 1
    kernel_size: 3
    group: 2
    weight_filler {
      type: "gaussian"
      std: 0.01
    }
    bias_filler {
      type: "constant"
      value: 1
    }
  }
}
layer {
  name: "relu5"
  type: "ReLU"
  bottom: "conv5"
  top: "conv5"
}
layer {
  name: "pool5"
  type: "Pooling"
  bottom: "conv5"
  top: "pool5"
  pooling_param {
    pool: MAX
    kernel_size: 3
    stride: 2
  }
}
layer {
  name: "fc6"
  type: "InnerProduct"
  bottom: "pool5"
  top: "fc6"
  param {
    lr_mult: 1
    decay_mult: 1
  }
  param {
    lr_mult: 2
    decay_mult: 0
  }
  inner_product_param {
    num_output: 4096
    weight_filler {
      type: "gaussian"
      std: 0.005
    }
    bias_filler {
      type: "constant"
      value: 1
    }
  }
}
layer {
  name: "relu6"
  type: "ReLU"
  bottom: "fc6"
  top: "fc6"
}
layer {
  name: "drop6"
  type: "Dropout"
  bottom: "fc6"
  top: "fc6"
  dropout_param {
    dropout_ratio: 0.5
  }
}
layer {
  name: "fc7"
  type: "InnerProduct"
  bottom: "fc6"
  top: "fc7"
  param {
    lr_mult: 1
    decay_mult: 1
  }
  param {
    lr_mult: 2
    decay_mult: 0
  }
  inner_product_param {
    num_output: 4096
    weight_filler {
      type: "gaussian"
      std: 0.005
    }
    bias_filler {
      type: "constant"
      value: 1
    }
  }
}
layer {
  name: "relu7"
  type: "ReLU"
  bottom: "fc7"
  top: "fc7"
}
layer {
  name: "drop7"
  type: "Dropout"
  bottom: "fc7"
  top: "fc7"
  dropout_param {
    dropout_ratio: 0.5
  }
}
layer {
  name: "fc8"
  type: "InnerProduct"
  bottom: "fc7"
  top: "fc8"
  param {
    lr_mult: 1
    decay_mult: 1
  }
  param {
    lr_mult: 2
    decay_mult: 0
  }
  inner_product_param {
    num_output: 5
    weight_filler {
      type: "gaussian"
      std: 0.01
    }
    bias_filler {
      type: "constant"
      value: 0
    }
  }
}
layer {
  name: "accuracy"
  type: "Accuracy"
  bottom: "fc8"
  bottom: "label"
  top: "accuracy"
  include {
    phase: TEST
  }
}
layer {
  name: "loss"
  type: "SoftmaxWithLoss"
  bottom: "fc8"
  bottom: "label"
  top: "loss"
}
I1119 12:43:58.528744  3204 layer_factory.hpp:77] Creating layer data
I1119 12:43:58.528828  3204 net.cpp:100] Creating Layer data
I1119 12:43:58.528837  3204 net.cpp:408] data -> data
I1119 12:43:58.528846  3204 net.cpp:408] data -> label
I1119 12:43:58.528853  3204 data_transformer.cpp:25] Loading mean file from: /home/deepglint/imgclassify/mean.binaryproto
I1119 12:43:58.529708  3211 db_lmdb.cpp:35] Opened lmdb /home/deepglint/imgclassify/img_test_lmdb
I1119 12:43:58.530748  3204 data_layer.cpp:41] output data size: 50,3,227,227
I1119 12:43:58.568861  3204 net.cpp:150] Setting up data
I1119 12:43:58.568897  3204 net.cpp:157] Top shape: 50 3 227 227 (7729350)
I1119 12:43:58.568905  3204 net.cpp:157] Top shape: 50 (50)
I1119 12:43:58.568909  3204 net.cpp:165] Memory required for data: 30917600
I1119 12:43:58.568915  3204 layer_factory.hpp:77] Creating layer label_data_1_split
I1119 12:43:58.568933  3204 net.cpp:100] Creating Layer label_data_1_split
I1119 12:43:58.568939  3204 net.cpp:434] label_data_1_split <- label
I1119 12:43:58.568946  3204 net.cpp:408] label_data_1_split -> label_data_1_split_0
I1119 12:43:58.568955  3204 net.cpp:408] label_data_1_split -> label_data_1_split_1
I1119 12:43:58.569033  3204 net.cpp:150] Setting up label_data_1_split
I1119 12:43:58.569041  3204 net.cpp:157] Top shape: 50 (50)
I1119 12:43:58.569046  3204 net.cpp:157] Top shape: 50 (50)
I1119 12:43:58.569048  3204 net.cpp:165] Memory required for data: 30918000
I1119 12:43:58.569053  3204 layer_factory.hpp:77] Creating layer conv1
I1119 12:43:58.569064  3204 net.cpp:100] Creating Layer conv1
I1119 12:43:58.569068  3204 net.cpp:434] conv1 <- data
I1119 12:43:58.569074  3204 net.cpp:408] conv1 -> conv1
I1119 12:43:58.572402  3204 net.cpp:150] Setting up conv1
I1119 12:43:58.572418  3204 net.cpp:157] Top shape: 50 96 55 55 (14520000)
I1119 12:43:58.572423  3204 net.cpp:165] Memory required for data: 88998000
I1119 12:43:58.572433  3204 layer_factory.hpp:77] Creating layer relu1
I1119 12:43:58.572441  3204 net.cpp:100] Creating Layer relu1
I1119 12:43:58.572445  3204 net.cpp:434] relu1 <- conv1
I1119 12:43:58.572450  3204 net.cpp:395] relu1 -> conv1 (in-place)
I1119 12:43:58.572458  3204 net.cpp:150] Setting up relu1
I1119 12:43:58.572463  3204 net.cpp:157] Top shape: 50 96 55 55 (14520000)
I1119 12:43:58.572465  3204 net.cpp:165] Memory required for data: 147078000
I1119 12:43:58.572469  3204 layer_factory.hpp:77] Creating layer pool1
I1119 12:43:58.572476  3204 net.cpp:100] Creating Layer pool1
I1119 12:43:58.572479  3204 net.cpp:434] pool1 <- conv1
I1119 12:43:58.572485  3204 net.cpp:408] pool1 -> pool1
I1119 12:43:58.572515  3204 net.cpp:150] Setting up pool1
I1119 12:43:58.572520  3204 net.cpp:157] Top shape: 50 96 27 27 (3499200)
I1119 12:43:58.572525  3204 net.cpp:165] Memory required for data: 161074800
I1119 12:43:58.572527  3204 layer_factory.hpp:77] Creating layer norm1
I1119 12:43:58.572535  3204 net.cpp:100] Creating Layer norm1
I1119 12:43:58.572538  3204 net.cpp:434] norm1 <- pool1
I1119 12:43:58.572543  3204 net.cpp:408] norm1 -> norm1
I1119 12:43:58.572568  3204 net.cpp:150] Setting up norm1
I1119 12:43:58.572573  3204 net.cpp:157] Top shape: 50 96 27 27 (3499200)
I1119 12:43:58.572576  3204 net.cpp:165] Memory required for data: 175071600
I1119 12:43:58.572580  3204 layer_factory.hpp:77] Creating layer conv2
I1119 12:43:58.572588  3204 net.cpp:100] Creating Layer conv2
I1119 12:43:58.572592  3204 net.cpp:434] conv2 <- norm1
I1119 12:43:58.572597  3204 net.cpp:408] conv2 -> conv2
I1119 12:43:58.581513  3204 net.cpp:150] Setting up conv2
I1119 12:43:58.581554  3204 net.cpp:157] Top shape: 50 256 27 27 (9331200)
I1119 12:43:58.581560  3204 net.cpp:165] Memory required for data: 212396400
I1119 12:43:58.581573  3204 layer_factory.hpp:77] Creating layer relu2
I1119 12:43:58.581593  3204 net.cpp:100] Creating Layer relu2
I1119 12:43:58.581598  3204 net.cpp:434] relu2 <- conv2
I1119 12:43:58.581621  3204 net.cpp:395] relu2 -> conv2 (in-place)
I1119 12:43:58.581640  3204 net.cpp:150] Setting up relu2
I1119 12:43:58.581645  3204 net.cpp:157] Top shape: 50 256 27 27 (9331200)
I1119 12:43:58.581648  3204 net.cpp:165] Memory required for data: 249721200
I1119 12:43:58.581652  3204 layer_factory.hpp:77] Creating layer pool2
I1119 12:43:58.581660  3204 net.cpp:100] Creating Layer pool2
I1119 12:43:58.581674  3204 net.cpp:434] pool2 <- conv2
I1119 12:43:58.581679  3204 net.cpp:408] pool2 -> pool2
I1119 12:43:58.581718  3204 net.cpp:150] Setting up pool2
I1119 12:43:58.581727  3204 net.cpp:157] Top shape: 50 256 13 13 (2163200)
I1119 12:43:58.581729  3204 net.cpp:165] Memory required for data: 258374000
I1119 12:43:58.581733  3204 layer_factory.hpp:77] Creating layer norm2
I1119 12:43:58.581740  3204 net.cpp:100] Creating Layer norm2
I1119 12:43:58.581744  3204 net.cpp:434] norm2 <- pool2
I1119 12:43:58.581749  3204 net.cpp:408] norm2 -> norm2
I1119 12:43:58.581778  3204 net.cpp:150] Setting up norm2
I1119 12:43:58.581784  3204 net.cpp:157] Top shape: 50 256 13 13 (2163200)
I1119 12:43:58.581786  3204 net.cpp:165] Memory required for data: 267026800
I1119 12:43:58.581790  3204 layer_factory.hpp:77] Creating layer conv3
I1119 12:43:58.581799  3204 net.cpp:100] Creating Layer conv3
I1119 12:43:58.581802  3204 net.cpp:434] conv3 <- norm2
I1119 12:43:58.581809  3204 net.cpp:408] conv3 -> conv3
I1119 12:43:58.606463  3204 net.cpp:150] Setting up conv3
I1119 12:43:58.606497  3204 net.cpp:157] Top shape: 50 384 13 13 (3244800)
I1119 12:43:58.606501  3204 net.cpp:165] Memory required for data: 280006000
I1119 12:43:58.606513  3204 layer_factory.hpp:77] Creating layer relu3
I1119 12:43:58.606523  3204 net.cpp:100] Creating Layer relu3
I1119 12:43:58.606528  3204 net.cpp:434] relu3 <- conv3
I1119 12:43:58.606534  3204 net.cpp:395] relu3 -> conv3 (in-place)
I1119 12:43:58.606542  3204 net.cpp:150] Setting up relu3
I1119 12:43:58.606549  3204 net.cpp:157] Top shape: 50 384 13 13 (3244800)
I1119 12:43:58.606551  3204 net.cpp:165] Memory required for data: 292985200
I1119 12:43:58.606555  3204 layer_factory.hpp:77] Creating layer conv4
I1119 12:43:58.606564  3204 net.cpp:100] Creating Layer conv4
I1119 12:43:58.606569  3204 net.cpp:434] conv4 <- conv3
I1119 12:43:58.606575  3204 net.cpp:408] conv4 -> conv4
I1119 12:43:58.625409  3204 net.cpp:150] Setting up conv4
I1119 12:43:58.625442  3204 net.cpp:157] Top shape: 50 384 13 13 (3244800)
I1119 12:43:58.625447  3204 net.cpp:165] Memory required for data: 305964400
I1119 12:43:58.625455  3204 layer_factory.hpp:77] Creating layer relu4
I1119 12:43:58.625465  3204 net.cpp:100] Creating Layer relu4
I1119 12:43:58.625470  3204 net.cpp:434] relu4 <- conv4
I1119 12:43:58.625478  3204 net.cpp:395] relu4 -> conv4 (in-place)
I1119 12:43:58.625485  3204 net.cpp:150] Setting up relu4
I1119 12:43:58.625490  3204 net.cpp:157] Top shape: 50 384 13 13 (3244800)
I1119 12:43:58.625494  3204 net.cpp:165] Memory required for data: 318943600
I1119 12:43:58.625496  3204 layer_factory.hpp:77] Creating layer conv5
I1119 12:43:58.625506  3204 net.cpp:100] Creating Layer conv5
I1119 12:43:58.625509  3204 net.cpp:434] conv5 <- conv4
I1119 12:43:58.625515  3204 net.cpp:408] conv5 -> conv5
I1119 12:43:58.638074  3204 net.cpp:150] Setting up conv5
I1119 12:43:58.638106  3204 net.cpp:157] Top shape: 50 256 13 13 (2163200)
I1119 12:43:58.638111  3204 net.cpp:165] Memory required for data: 327596400
I1119 12:43:58.638124  3204 layer_factory.hpp:77] Creating layer relu5
I1119 12:43:58.638134  3204 net.cpp:100] Creating Layer relu5
I1119 12:43:58.638139  3204 net.cpp:434] relu5 <- conv5
I1119 12:43:58.638145  3204 net.cpp:395] relu5 -> conv5 (in-place)
I1119 12:43:58.638154  3204 net.cpp:150] Setting up relu5
I1119 12:43:58.638159  3204 net.cpp:157] Top shape: 50 256 13 13 (2163200)
I1119 12:43:58.638162  3204 net.cpp:165] Memory required for data: 336249200
I1119 12:43:58.638166  3204 layer_factory.hpp:77] Creating layer pool5
I1119 12:43:58.638175  3204 net.cpp:100] Creating Layer pool5
I1119 12:43:58.638188  3204 net.cpp:434] pool5 <- conv5
I1119 12:43:58.638201  3204 net.cpp:408] pool5 -> pool5
I1119 12:43:58.638242  3204 net.cpp:150] Setting up pool5
I1119 12:43:58.638248  3204 net.cpp:157] Top shape: 50 256 6 6 (460800)
I1119 12:43:58.638252  3204 net.cpp:165] Memory required for data: 338092400
I1119 12:43:58.638257  3204 layer_factory.hpp:77] Creating layer fc6
I1119 12:43:58.638263  3204 net.cpp:100] Creating Layer fc6
I1119 12:43:58.638267  3204 net.cpp:434] fc6 <- pool5
I1119 12:43:58.638273  3204 net.cpp:408] fc6 -> fc6
I1119 12:43:59.574928  3204 net.cpp:150] Setting up fc6
I1119 12:43:59.574965  3204 net.cpp:157] Top shape: 50 4096 (204800)
I1119 12:43:59.574970  3204 net.cpp:165] Memory required for data: 338911600
I1119 12:43:59.574980  3204 layer_factory.hpp:77] Creating layer relu6
I1119 12:43:59.574990  3204 net.cpp:100] Creating Layer relu6
I1119 12:43:59.574995  3204 net.cpp:434] relu6 <- fc6
I1119 12:43:59.575002  3204 net.cpp:395] relu6 -> fc6 (in-place)
I1119 12:43:59.575011  3204 net.cpp:150] Setting up relu6
I1119 12:43:59.575016  3204 net.cpp:157] Top shape: 50 4096 (204800)
I1119 12:43:59.575019  3204 net.cpp:165] Memory required for data: 339730800
I1119 12:43:59.575022  3204 layer_factory.hpp:77] Creating layer drop6
I1119 12:43:59.575029  3204 net.cpp:100] Creating Layer drop6
I1119 12:43:59.575032  3204 net.cpp:434] drop6 <- fc6
I1119 12:43:59.575037  3204 net.cpp:395] drop6 -> fc6 (in-place)
I1119 12:43:59.575062  3204 net.cpp:150] Setting up drop6
I1119 12:43:59.575068  3204 net.cpp:157] Top shape: 50 4096 (204800)
I1119 12:43:59.575072  3204 net.cpp:165] Memory required for data: 340550000
I1119 12:43:59.575075  3204 layer_factory.hpp:77] Creating layer fc7
I1119 12:43:59.575083  3204 net.cpp:100] Creating Layer fc7
I1119 12:43:59.575085  3204 net.cpp:434] fc7 <- fc6
I1119 12:43:59.575091  3204 net.cpp:408] fc7 -> fc7
I1119 12:43:59.990805  3204 net.cpp:150] Setting up fc7
I1119 12:43:59.990840  3204 net.cpp:157] Top shape: 50 4096 (204800)
I1119 12:43:59.990846  3204 net.cpp:165] Memory required for data: 341369200
I1119 12:43:59.990855  3204 layer_factory.hpp:77] Creating layer relu7
I1119 12:43:59.990865  3204 net.cpp:100] Creating Layer relu7
I1119 12:43:59.990870  3204 net.cpp:434] relu7 <- fc7
I1119 12:43:59.990876  3204 net.cpp:395] relu7 -> fc7 (in-place)
I1119 12:43:59.990886  3204 net.cpp:150] Setting up relu7
I1119 12:43:59.990890  3204 net.cpp:157] Top shape: 50 4096 (204800)
I1119 12:43:59.990893  3204 net.cpp:165] Memory required for data: 342188400
I1119 12:43:59.990897  3204 layer_factory.hpp:77] Creating layer drop7
I1119 12:43:59.990903  3204 net.cpp:100] Creating Layer drop7
I1119 12:43:59.990907  3204 net.cpp:434] drop7 <- fc7
I1119 12:43:59.990911  3204 net.cpp:395] drop7 -> fc7 (in-place)
I1119 12:43:59.990936  3204 net.cpp:150] Setting up drop7
I1119 12:43:59.990942  3204 net.cpp:157] Top shape: 50 4096 (204800)
I1119 12:43:59.990945  3204 net.cpp:165] Memory required for data: 343007600
I1119 12:43:59.990949  3204 layer_factory.hpp:77] Creating layer fc8
I1119 12:43:59.990957  3204 net.cpp:100] Creating Layer fc8
I1119 12:43:59.990959  3204 net.cpp:434] fc8 <- fc7
I1119 12:43:59.990965  3204 net.cpp:408] fc8 -> fc8
I1119 12:43:59.991545  3204 net.cpp:150] Setting up fc8
I1119 12:43:59.991552  3204 net.cpp:157] Top shape: 50 5 (250)
I1119 12:43:59.991556  3204 net.cpp:165] Memory required for data: 343008600
I1119 12:43:59.991562  3204 layer_factory.hpp:77] Creating layer fc8_fc8_0_split
I1119 12:43:59.991569  3204 net.cpp:100] Creating Layer fc8_fc8_0_split
I1119 12:43:59.991572  3204 net.cpp:434] fc8_fc8_0_split <- fc8
I1119 12:43:59.991577  3204 net.cpp:408] fc8_fc8_0_split -> fc8_fc8_0_split_0
I1119 12:43:59.991583  3204 net.cpp:408] fc8_fc8_0_split -> fc8_fc8_0_split_1
I1119 12:43:59.991610  3204 net.cpp:150] Setting up fc8_fc8_0_split
I1119 12:43:59.991614  3204 net.cpp:157] Top shape: 50 5 (250)
I1119 12:43:59.991618  3204 net.cpp:157] Top shape: 50 5 (250)
I1119 12:43:59.991622  3204 net.cpp:165] Memory required for data: 343010600
I1119 12:43:59.991633  3204 layer_factory.hpp:77] Creating layer accuracy
I1119 12:43:59.991657  3204 net.cpp:100] Creating Layer accuracy
I1119 12:43:59.991662  3204 net.cpp:434] accuracy <- fc8_fc8_0_split_0
I1119 12:43:59.991665  3204 net.cpp:434] accuracy <- label_data_1_split_0
I1119 12:43:59.991672  3204 net.cpp:408] accuracy -> accuracy
…
