…
I1103 17:02:58.995002  6500 net.cpp:322] The NetState phase (0) differed from the phase (1) specified by a rule in layer accuracy
I1103 17:02:58.995162  6500 net.cpp:58] Initializing net from parameters: 
name: "CaffeNet"
state {
  phase: TRAIN
  level: 0
  stage: ""
}
layer {
  name: "data"
  type: "Data"
  top: "data"
  top: "label"
  include {
    phase: TRAIN
  }
  transform_param {
    mirror: true
    crop_size: 227
    mean_file: "/home/deepglint/deeplearning-cats-dogs-tutorial/input/mean.binaryproto"
  }
  data_param {
    source: "/home/deepglint/deeplearning-cats-dogs-tutorial/input/train_lmdb"
    batch_size: 256
    backend: LMDB
  }
}
layer {
  name: "conv1"
  type: "Convolution"
  bottom: "data"
  top: "conv1"
  param {
    lr_mult: 1
    decay_mult: 1
  }
  param {
    lr_mult: 2
    decay_mult: 0
  }
  convolution_param {
    num_output: 96
    kernel_size: 11
    stride: 4
    weight_filler {
      type: "gaussian"
      std: 0.01
    }
    bias_filler {
      type: "constant"
      value: 0
    }
  }
}
layer {
  name: "relu1"
  type: "ReLU"
  bottom: "conv1"
  top: "conv1"
}
layer {
  name: "pool1"
  type: "Pooling"
  bottom: "conv1"
  top: "pool1"
  pooling_param {
    pool: MAX
    kernel_size: 3
    stride: 2
  }
}
layer {
  name: "norm1"
  type: "LRN"
  bottom: "pool1"
  top: "norm1"
  lrn_param {
    local_size: 5
    alpha: 0.0001
    beta: 0.75
  }
}
layer {
  name: "conv2"
  type: "Convolution"
  bottom: "norm1"
  top: "conv2"
  param {
    lr_mult: 1
    decay_mult: 1
  }
  param {
    lr_mult: 2
    decay_mult: 0
  }
  convolution_param {
    num_output: 256
    pad: 2
    kernel_size: 5
    group: 2
    weight_filler {
      type: "gaussian"
      std: 0.01
    }
    bias_filler {
      type: "constant"
      value: 1
    }
  }
}
layer {
  name: "relu2"
  type: "ReLU"
  bottom: "conv2"
  top: "conv2"
}
layer {
  name: "pool2"
  type: "Pooling"
  bottom: "conv2"
  top: "pool2"
  pooling_param {
    pool: MAX
    kernel_size: 3
    stride: 2
  }
}
layer {
  name: "norm2"
  type: "LRN"
  bottom: "pool2"
  top: "norm2"
  lrn_param {
    local_size: 5
    alpha: 0.0001
    beta: 0.75
  }
}
layer {
  name: "conv3"
  type: "Convolution"
  bottom: "norm2"
  top: "conv3"
  param {
    lr_mult: 1
    decay_mult: 1
  }
  param {
    lr_mult: 2
    decay_mult: 0
  }
  convolution_param {
    num_output: 384
    pad: 1
    kernel_size: 3
    weight_filler {
      type: "gaussian"
      std: 0.01
    }
    bias_filler {
      type: "constant"
      value: 0
    }
  }
}
layer {
  name: "relu3"
  type: "ReLU"
  bottom: "conv3"
  top: "conv3"
}
layer {
  name: "conv4"
  type: "Convolution"
  bottom: "conv3"
  top: "conv4"
  param {
    lr_mult: 1
    decay_mult: 1
  }
  param {
    lr_mult: 2
    decay_mult: 0
  }
  convolution_param {
    num_output: 384
    pad: 1
    kernel_size: 3
    group: 2
    weight_filler {
      type: "gaussian"
      std: 0.01
    }
    bias_filler {
      type: "constant"
      value: 1
    }
  }
}
layer {
  name: "relu4"
  type: "ReLU"
  bottom: "conv4"
  top: "conv4"
}
layer {
  name: "conv5"
  type: "Convolution"
  bottom: "conv4"
  top: "conv5"
  param {
    lr_mult: 1
    decay_mult: 1
  }
  param {
    lr_mult: 2
    decay_mult: 0
  }
  convolution_param {
    num_output: 256
    pad: 1
    kernel_size: 3
    group: 2
    weight_filler {
      type: "gaussian"
      std: 0.01
    }
    bias_filler {
      type: "constant"
      value: 1
    }
  }
}
layer {
  name: "relu5"
  type: "ReLU"
  bottom: "conv5"
  top: "conv5"
}
layer {
  name: "pool5"
  type: "Pooling"
  bottom: "conv5"
  top: "pool5"
  pooling_param {
    pool: MAX
    kernel_size: 3
    stride: 2
  }
}
layer {
  name: "fc6"
  type: "InnerProduct"
  bottom: "pool5"
  top: "fc6"
  param {
    lr_mult: 1
    decay_mult: 1
  }
  param {
    lr_mult: 2
    decay_mult: 0
  }
  inner_product_param {
    num_output: 4096
    weight_filler {
      type: "gaussian"
      std: 0.005
    }
    bias_filler {
      type: "constant"
      value: 1
    }
  }
}
layer {
  name: "relu6"
  type: "ReLU"
  bottom: "fc6"
  top: "fc6"
}
layer {
  name: "drop6"
  type: "Dropout"
  bottom: "fc6"
  top: "fc6"
  dropout_param {
    dropout_ratio: 0.5
  }
}
layer {
  name: "fc7"
  type: "InnerProduct"
  bottom: "fc6"
  top: "fc7"
  param {
    lr_mult: 1
    decay_mult: 1
  }
  param {
    lr_mult: 2
    decay_mult: 0
  }
  inner_product_param {
    num_output: 4096
    weight_filler {
      type: "gaussian"
      std: 0.005
    }
    bias_filler {
      type: "constant"
      value: 1
    }
  }
}
layer {
  name: "relu7"
  type: "ReLU"
  bottom: "fc7"
  top: "fc7"
}
layer {
  name: "drop7"
  type: "Dropout"
  bottom: "fc7"
  top: "fc7"
  dropout_param {
    dropout_ratio: 0.5
  }
}
layer {
  name: "fc8"
  type: "InnerProduct"
  bottom: "fc7"
  top: "fc8"
  param {
    lr_mult: 1
    decay_mult: 1
  }
  param {
    lr_mult: 2
    decay_mult: 0
  }
  inner_product_param {
    num_output: 2
    weight_filler {
      type: "gaussian"
      std: 0.01
    }
    bias_filler {
      type: "constant"
      value: 0
    }
  }
}
layer {
  name: "loss"
  type: "SoftmaxWithLoss"
  bottom: "fc8"
  bottom: "label"
  top: "loss"
}
I1103 17:02:58.995260  6500 layer_factory.hpp:77] Creating layer data
I1103 17:02:58.995800  6500 net.cpp:100] Creating Layer data
I1103 17:02:58.995820  6500 net.cpp:408] data -> data
I1103 17:02:58.995839  6500 net.cpp:408] data -> label
I1103 17:02:58.995849  6500 data_transformer.cpp:25] Loading mean file from: /home/deepglint/deeplearning-cats-dogs-tutorial/input/mean.binaryproto
I1103 17:02:58.995889  6502 db_lmdb.cpp:35] Opened lmdb /home/deepglint/deeplearning-cats-dogs-tutorial/input/train_lmdb
I1103 17:02:59.062796  6500 data_layer.cpp:41] output data size: 256,3,227,227
I1103 17:03:02.234005  6500 net.cpp:150] Setting up data
I1103 17:03:02.234057  6500 net.cpp:157] Top shape: 256 3 227 227 (39574272)
I1103 17:03:02.234067  6500 net.cpp:157] Top shape: 256 (256)
I1103 17:03:02.234076  6500 net.cpp:165] Memory required for data: 158298112
I1103 17:03:02.234086  6500 layer_factory.hpp:77] Creating layer conv1
I1103 17:03:02.234113  6500 net.cpp:100] Creating Layer conv1
I1103 17:03:02.234119  6500 net.cpp:434] conv1 <- data
I1103 17:03:02.234133  6500 net.cpp:408] conv1 -> conv1
I1103 17:03:02.235088  6500 net.cpp:150] Setting up conv1
I1103 17:03:02.235097  6500 net.cpp:157] Top shape: 256 96 55 55 (74342400)
I1103 17:03:02.235101  6500 net.cpp:165] Memory required for data: 455667712
I1103 17:03:02.235113  6500 layer_factory.hpp:77] Creating layer relu1
I1103 17:03:02.235121  6500 net.cpp:100] Creating Layer relu1
I1103 17:03:02.235126  6500 net.cpp:434] relu1 <- conv1
I1103 17:03:02.235131  6500 net.cpp:395] relu1 -> conv1 (in-place)
I1103 17:03:02.235141  6500 net.cpp:150] Setting up relu1
I1103 17:03:02.235147  6500 net.cpp:157] Top shape: 256 96 55 55 (74342400)
I1103 17:03:02.235150  6500 net.cpp:165] Memory required for data: 753037312
I1103 17:03:02.235153  6500 layer_factory.hpp:77] Creating layer pool1
I1103 17:03:02.235159  6500 net.cpp:100] Creating Layer pool1
I1103 17:03:02.235162  6500 net.cpp:434] pool1 <- conv1
I1103 17:03:02.235167  6500 net.cpp:408] pool1 -> pool1
I1103 17:03:02.235183  6500 net.cpp:150] Setting up pool1
I1103 17:03:02.235188  6500 net.cpp:157] Top shape: 256 96 27 27 (17915904)
I1103 17:03:02.235191  6500 net.cpp:165] Memory required for data: 824700928
I1103 17:03:02.235213  6500 layer_factory.hpp:77] Creating layer norm1
I1103 17:03:02.235222  6500 net.cpp:100] Creating Layer norm1
I1103 17:03:02.235225  6500 net.cpp:434] norm1 <- pool1
I1103 17:03:02.235230  6500 net.cpp:408] norm1 -> norm1
I1103 17:03:02.235242  6500 net.cpp:150] Setting up norm1
I1103 17:03:02.235247  6500 net.cpp:157] Top shape: 256 96 27 27 (17915904)
I1103 17:03:02.235250  6500 net.cpp:165] Memory required for data: 896364544
I1103 17:03:02.235254  6500 layer_factory.hpp:77] Creating layer conv2
I1103 17:03:02.235261  6500 net.cpp:100] Creating Layer conv2
I1103 17:03:02.235265  6500 net.cpp:434] conv2 <- norm1
I1103 17:03:02.235270  6500 net.cpp:408] conv2 -> conv2
I1103 17:03:02.243165  6500 net.cpp:150] Setting up conv2
I1103 17:03:02.243182  6500 net.cpp:157] Top shape: 256 256 27 27 (47775744)
I1103 17:03:02.243187  6500 net.cpp:165] Memory required for data: 1087467520
I1103 17:03:02.243198  6500 layer_factory.hpp:77] Creating layer relu2
I1103 17:03:02.243207  6500 net.cpp:100] Creating Layer relu2
I1103 17:03:02.243216  6500 net.cpp:434] relu2 <- conv2
I1103 17:03:02.243222  6500 net.cpp:395] relu2 -> conv2 (in-place)
I1103 17:03:02.243230  6500 net.cpp:150] Setting up relu2
I1103 17:03:02.243237  6500 net.cpp:157] Top shape: 256 256 27 27 (47775744)
I1103 17:03:02.243240  6500 net.cpp:165] Memory required for data: 1278570496
I1103 17:03:02.243243  6500 layer_factory.hpp:77] Creating layer pool2
I1103 17:03:02.243249  6500 net.cpp:100] Creating Layer pool2
I1103 17:03:02.243252  6500 net.cpp:434] pool2 <- conv2
I1103 17:03:02.243257  6500 net.cpp:408] pool2 -> pool2
I1103 17:03:02.243265  6500 net.cpp:150] Setting up pool2
I1103 17:03:02.243269  6500 net.cpp:157] Top shape: 256 256 13 13 (11075584)
I1103 17:03:02.243273  6500 net.cpp:165] Memory required for data: 1322872832
I1103 17:03:02.243275  6500 layer_factory.hpp:77] Creating layer norm2
I1103 17:03:02.243283  6500 net.cpp:100] Creating Layer norm2
I1103 17:03:02.243285  6500 net.cpp:434] norm2 <- pool2
I1103 17:03:02.243289  6500 net.cpp:408] norm2 -> norm2
I1103 17:03:02.243295  6500 net.cpp:150] Setting up norm2
I1103 17:03:02.243299  6500 net.cpp:157] Top shape: 256 256 13 13 (11075584)
I1103 17:03:02.243302  6500 net.cpp:165] Memory required for data: 1367175168
I1103 17:03:02.243305  6500 layer_factory.hpp:77] Creating layer conv3
I1103 17:03:02.243314  6500 net.cpp:100] Creating Layer conv3
I1103 17:03:02.243320  6500 net.cpp:434] conv3 <- norm2
I1103 17:03:02.243325  6500 net.cpp:408] conv3 -> conv3
I1103 17:03:02.279340  6500 net.cpp:150] Setting up conv3
I1103 17:03:02.279378  6500 net.cpp:157] Top shape: 256 384 13 13 (16613376)
I1103 17:03:02.279383  6500 net.cpp:165] Memory required for data: 1433628672
I1103 17:03:02.279397  6500 layer_factory.hpp:77] Creating layer relu3
I1103 17:03:02.279407  6500 net.cpp:100] Creating Layer relu3
I1103 17:03:02.279412  6500 net.cpp:434] relu3 <- conv3
I1103 17:03:02.279418  6500 net.cpp:395] relu3 -> conv3 (in-place)
I1103 17:03:02.279429  6500 net.cpp:150] Setting up relu3
I1103 17:03:02.279434  6500 net.cpp:157] Top shape: 256 384 13 13 (16613376)
I1103 17:03:02.279438  6500 net.cpp:165] Memory required for data: 1500082176
I1103 17:03:02.279441  6500 layer_factory.hpp:77] Creating layer conv4
I1103 17:03:02.279453  6500 net.cpp:100] Creating Layer conv4
I1103 17:03:02.279458  6500 net.cpp:434] conv4 <- conv3
I1103 17:03:02.279462  6500 net.cpp:408] conv4 -> conv4
I1103 17:03:02.297008  6500 net.cpp:150] Setting up conv4
I1103 17:03:02.297034  6500 net.cpp:157] Top shape: 256 384 13 13 (16613376)
I1103 17:03:02.297040  6500 net.cpp:165] Memory required for data: 1566535680
I1103 17:03:02.297050  6500 layer_factory.hpp:77] Creating layer relu4
I1103 17:03:02.297061  6500 net.cpp:100] Creating Layer relu4
I1103 17:03:02.297067  6500 net.cpp:434] relu4 <- conv4
I1103 17:03:02.297075  6500 net.cpp:395] relu4 -> conv4 (in-place)
I1103 17:03:02.297086  6500 net.cpp:150] Setting up relu4
I1103 17:03:02.297091  6500 net.cpp:157] Top shape: 256 384 13 13 (16613376)
I1103 17:03:02.297113  6500 net.cpp:165] Memory required for data: 1632989184
I1103 17:03:02.297118  6500 layer_factory.hpp:77] Creating layer conv5
I1103 17:03:02.297128  6500 net.cpp:100] Creating Layer conv5
I1103 17:03:02.297134  6500 net.cpp:434] conv5 <- conv4
I1103 17:03:02.297140  6500 net.cpp:408] conv5 -> conv5
I1103 17:03:02.308387  6500 net.cpp:150] Setting up conv5
I1103 17:03:02.308418  6500 net.cpp:157] Top shape: 256 256 13 13 (11075584)
I1103 17:03:02.308423  6500 net.cpp:165] Memory required for data: 1677291520
I1103 17:03:02.308437  6500 layer_factory.hpp:77] Creating layer relu5
I1103 17:03:02.308449  6500 net.cpp:100] Creating Layer relu5
I1103 17:03:02.308452  6500 net.cpp:434] relu5 <- conv5
I1103 17:03:02.308459  6500 net.cpp:395] relu5 -> conv5 (in-place)
I1103 17:03:02.308467  6500 net.cpp:150] Setting up relu5
I1103 17:03:02.308472  6500 net.cpp:157] Top shape: 256 256 13 13 (11075584)
I1103 17:03:02.308475  6500 net.cpp:165] Memory required for data: 1721593856
I1103 17:03:02.308478  6500 layer_factory.hpp:77] Creating layer pool5
I1103 17:03:02.308485  6500 net.cpp:100] Creating Layer pool5
I1103 17:03:02.308487  6500 net.cpp:434] pool5 <- conv5
I1103 17:03:02.308492  6500 net.cpp:408] pool5 -> pool5
I1103 17:03:02.308501  6500 net.cpp:150] Setting up pool5
I1103 17:03:02.308509  6500 net.cpp:157] Top shape: 256 256 6 6 (2359296)
I1103 17:03:02.308512  6500 net.cpp:165] Memory required for data: 1731031040
I1103 17:03:02.308516  6500 layer_factory.hpp:77] Creating layer fc6
I1103 17:03:02.308526  6500 net.cpp:100] Creating Layer fc6
I1103 17:03:02.308529  6500 net.cpp:434] fc6 <- pool5
I1103 17:03:02.308534  6500 net.cpp:408] fc6 -> fc6
I1103 17:03:02.457868  6503 blocking_queue.cpp:50] Waiting for data
I1103 17:03:04.290081  6500 net.cpp:150] Setting up fc6
I1103 17:03:04.290122  6500 net.cpp:157] Top shape: 256 4096 (1048576)
I1103 17:03:04.290125  6500 net.cpp:165] Memory required for data: 1735225344
I1103 17:03:04.290134  6500 layer_factory.hpp:77] Creating layer relu6
I1103 17:03:04.290154  6500 net.cpp:100] Creating Layer relu6
I1103 17:03:04.290158  6500 net.cpp:434] relu6 <- fc6
I1103 17:03:04.290164  6500 net.cpp:395] relu6 -> fc6 (in-place)
I1103 17:03:04.290174  6500 net.cpp:150] Setting up relu6
I1103 17:03:04.290177  6500 net.cpp:157] Top shape: 256 4096 (1048576)
I1103 17:03:04.290179  6500 net.cpp:165] Memory required for data: 1739419648
I1103 17:03:04.290182  6500 layer_factory.hpp:77] Creating layer drop6
I1103 17:03:04.290190  6500 net.cpp:100] Creating Layer drop6
I1103 17:03:04.290194  6500 net.cpp:434] drop6 <- fc6
I1103 17:03:04.290196  6500 net.cpp:395] drop6 -> fc6 (in-place)
I1103 17:03:04.290210  6500 net.cpp:150] Setting up drop6
I1103 17:03:04.290213  6500 net.cpp:157] Top shape: 256 4096 (1048576)
I1103 17:03:04.290216  6500 net.cpp:165] Memory required for data: 1743613952
I1103 17:03:04.290220  6500 layer_factory.hpp:77] Creating layer fc7
I1103 17:03:04.290225  6500 net.cpp:100] Creating Layer fc7
I1103 17:03:04.290228  6500 net.cpp:434] fc7 <- fc6
I1103 17:03:04.290233  6500 net.cpp:408] fc7 -> fc7
I1103 17:03:04.996477  6500 net.cpp:150] Setting up fc7
I1103 17:03:04.996513  6500 net.cpp:157] Top shape: 256 4096 (1048576)
I1103 17:03:04.996518  6500 net.cpp:165] Memory required for data: 1747808256
I1103 17:03:04.996528  6500 layer_factory.hpp:77] Creating layer relu7
I1103 17:03:04.996549  6500 net.cpp:100] Creating Layer relu7
I1103 17:03:04.996553  6500 net.cpp:434] relu7 <- fc7
I1103 17:03:04.996559  6500 net.cpp:395] relu7 -> fc7 (in-place)
I1103 17:03:04.996569  6500 net.cpp:150] Setting up relu7
I1103 17:03:04.996573  6500 net.cpp:157] Top shape: 256 4096 (1048576)
I1103 17:03:04.996579  6500 net.cpp:165] Memory required for data: 1752002560
I1103 17:03:04.996582  6500 layer_factory.hpp:77] Creating layer drop7
I1103 17:03:04.996593  6500 net.cpp:100] Creating Layer drop7
I1103 17:03:04.996598  6500 net.cpp:434] drop7 <- fc7
I1103 17:03:04.996601  6500 net.cpp:395] drop7 -> fc7 (in-place)
I1103 17:03:04.996608  6500 net.cpp:150] Setting up drop7
I1103 17:03:04.996631  6500 net.cpp:157] Top shape: 256 4096 (1048576)
I1103 17:03:04.996635  6500 net.cpp:165] Memory required for data: 1756196864
I1103 17:03:04.996639  6500 layer_factory.hpp:77] Creating layer fc8
I1103 17:03:04.996645  6500 net.cpp:100] Creating Layer fc8
I1103 17:03:04.996649  6500 net.cpp:434] fc8 <- fc7
I1103 17:03:04.996654  6500 net.cpp:408] fc8 -> fc8
I1103 17:03:04.996891  6500 net.cpp:150] Setting up fc8
I1103 17:03:04.996896  6500 net.cpp:157] Top shape: 256 2 (512)
I1103 17:03:04.996908  6500 net.cpp:165] Memory required for data: 1756198912
I1103 17:03:04.996914  6500 layer_factory.hpp:77] Creating layer loss
I1103 17:03:04.996929  6500 net.cpp:100] Creating Layer loss
I1103 17:03:04.996933  6500 net.cpp:434] loss <- fc8
I1103 17:03:04.996937  6500 net.cpp:434] loss <- label
I1103 17:03:04.996944  6500 net.cpp:408] loss -> loss
I1103 17:03:04.996961  6500 layer_factory.hpp:77] Creating layer loss
…
I1103 17:03:05.013520  6500 net.cpp:322] The NetState phase (1) differed from the phase (0) specified by a rule in layer data
I1103 17:03:05.013748  6500 net.cpp:58] Initializing net from parameters: 
name: "CaffeNet"
state {
  phase: TEST
}
layer {
  name: "data"
  type: "Data"
  top: "data"
  top: "label"
  include {
    phase: TEST
  }
  transform_param {
    mirror: false
    crop_size: 227
    mean_file: "/home/deepglint/deeplearning-cats-dogs-tutorial/input/mean.binaryproto"
  }
  data_param {
    source: "/home/deepglint/deeplearning-cats-dogs-tutorial/input/validation_lmdb"
    batch_size: 50
    backend: LMDB
  }
}
layer {
  name: "conv1"
  type: "Convolution"
  bottom: "data"
  top: "conv1"
  param {
    lr_mult: 1
    decay_mult: 1
  }
  param {
    lr_mult: 2
    decay_mult: 0
  }
  convolution_param {
    num_output: 96
    kernel_size: 11
    stride: 4
    weight_filler {
      type: "gaussian"
      std: 0.01
    }
    bias_filler {
      type: "constant"
      value: 0
    }
  }
}
layer {
  name: "relu1"
  type: "ReLU"
  bottom: "conv1"
  top: "conv1"
}
layer {
  name: "pool1"
  type: "Pooling"
  bottom: "conv1"
  top: "pool1"
  pooling_param {
    pool: MAX
    kernel_size: 3
    stride: 2
  }
}
layer {
  name: "norm1"
  type: "LRN"
  bottom: "pool1"
  top: "norm1"
  lrn_param {
    local_size: 5
    alpha: 0.0001
    beta: 0.75
  }
}
layer {
  name: "conv2"
  type: "Convolution"
  bottom: "norm1"
  top: "conv2"
  param {
    lr_mult: 1
    decay_mult: 1
  }
  param {
    lr_mult: 2
    decay_mult: 0
  }
  convolution_param {
    num_output: 256
    pad: 2
    kernel_size: 5
    group: 2
    weight_filler {
      type: "gaussian"
      std: 0.01
    }
    bias_filler {
      type: "constant"
      value: 1
    }
  }
}
layer {
  name: "relu2"
  type: "ReLU"
  bottom: "conv2"
  top: "conv2"
}
layer {
  name: "pool2"
  type: "Pooling"
  bottom: "conv2"
  top: "pool2"
  pooling_param {
    pool: MAX
    kernel_size: 3
    stride: 2
  }
}
layer {
  name: "norm2"
  type: "LRN"
  bottom: "pool2"
  top: "norm2"
  lrn_param {
    local_size: 5
    alpha: 0.0001
    beta: 0.75
  }
}
layer {
  name: "conv3"
  type: "Convolution"
  bottom: "norm2"
  top: "conv3"
  param {
    lr_mult: 1
    decay_mult: 1
  }
  param {
    lr_mult: 2
    decay_mult: 0
  }
  convolution_param {
    num_output: 384
    pad: 1
    kernel_size: 3
    weight_filler {
      type: "gaussian"
      std: 0.01
    }
    bias_filler {
      type: "constant"
      value: 0
    }
  }
}
layer {
  name: "relu3"
  type: "ReLU"
  bottom: "conv3"
  top: "conv3"
}
layer {
  name: "conv4"
  type: "Convolution"
  bottom: "conv3"
  top: "conv4"
  param {
    lr_mult: 1
    decay_mult: 1
  }
  param {
    lr_mult: 2
    decay_mult: 0
  }
  convolution_param {
    num_output: 384
    pad: 1
    kernel_size: 3
    group: 2
    weight_filler {
      type: "gaussian"
      std: 0.01
    }
    bias_filler {
      type: "constant"
      value: 1
    }
  }
}
layer {
  name: "relu4"
  type: "ReLU"
  bottom: "conv4"
  top: "conv4"
}
layer {
  name: "conv5"
  type: "Convolution"
  bottom: "conv4"
  top: "conv5"
  param {
    lr_mult: 1
    decay_mult: 1
  }
  param {
    lr_mult: 2
    decay_mult: 0
  }
  convolution_param {
    num_output: 256
    pad: 1
    kernel_size: 3
    group: 2
    weight_filler {
      type: "gaussian"
      std: 0.01
    }
    bias_filler {
      type: "constant"
      value: 1
    }
  }
}
layer {
  name: "relu5"
  type: "ReLU"
  bottom: "conv5"
  top: "conv5"
}
layer {
  name: "pool5"
  type: "Pooling"
  bottom: "conv5"
  top: "pool5"
  pooling_param {
    pool: MAX
    kernel_size: 3
    stride: 2
  }
}
layer {
  name: "fc6"
  type: "InnerProduct"
  bottom: "pool5"
  top: "fc6"
  param {
    lr_mult: 1
    decay_mult: 1
  }
  param {
    lr_mult: 2
    decay_mult: 0
  }
  inner_product_param {
    num_output: 4096
    weight_filler {
      type: "gaussian"
      std: 0.005
    }
    bias_filler {
      type: "constant"
      value: 1
    }
  }
}
layer {
  name: "relu6"
  type: "ReLU"
  bottom: "fc6"
  top: "fc6"
}
layer {
  name: "drop6"
  type: "Dropout"
  bottom: "fc6"
  top: "fc6"
  dropout_param {
    dropout_ratio: 0.5
  }
}
layer {
  name: "fc7"
  type: "InnerProduct"
  bottom: "fc6"
  top: "fc7"
  param {
    lr_mult: 1
    decay_mult: 1
  }
  param {
    lr_mult: 2
    decay_mult: 0
  }
  inner_product_param {
    num_output: 4096
    weight_filler {
      type: "gaussian"
      std: 0.005
    }
    bias_filler {
      type: "constant"
      value: 1
    }
  }
}
layer {
  name: "relu7"
  type: "ReLU"
  bottom: "fc7"
  top: "fc7"
}
layer {
  name: "drop7"
  type: "Dropout"
  bottom: "fc7"
  top: "fc7"
  dropout_param {
    dropout_ratio: 0.5
  }
}
layer {
  name: "fc8"
  type: "InnerProduct"
  bottom: "fc7"
  top: "fc8"
  param {
    lr_mult: 1
    decay_mult: 1
  }
  param {
    lr_mult: 2
    decay_mult: 0
  }
  inner_product_param {
    num_output: 2
    weight_filler {
      type: "gaussian"
      std: 0.01
    }
    bias_filler {
      type: "constant"
      value: 0
    }
  }
}
layer {
  name: "accuracy"
  type: "Accuracy"
  bottom: "fc8"
  bottom: "label"
  top: "accuracy"
  include {
    phase: TEST
  }
}
layer {
  name: "loss"
  type: "SoftmaxWithLoss"
  bottom: "fc8"
  bottom: "label"
  top: "loss"
}
I1103 17:03:05.013968  6500 layer_factory.hpp:77] Creating layer data
I1103 17:03:05.014094  6500 net.cpp:100] Creating Layer data
I1103 17:03:05.014111  6500 net.cpp:408] data -> data
I1103 17:03:05.014142  6500 net.cpp:408] data -> label
I1103 17:03:05.014154  6500 data_transformer.cpp:25] Loading mean file from: /home/deepglint/deeplearning-cats-dogs-tutorial/input/mean.binaryproto
I1103 17:03:05.087267  6505 db_lmdb.cpp:35] Opened lmdb /home/deepglint/deeplearning-cats-dogs-tutorial/input/validation_lmdb
I1103 17:03:05.489676  6500 data_layer.cpp:41] output data size: 50,3,227,227
I1103 17:03:05.944067  6500 net.cpp:150] Setting up data
I1103 17:03:05.944126  6500 net.cpp:157] Top shape: 50 3 227 227 (7729350)
I1103 17:03:05.944139  6500 net.cpp:157] Top shape: 50 (50)
I1103 17:03:05.944145  6500 net.cpp:165] Memory required for data: 30917600
I1103 17:03:05.944154  6500 layer_factory.hpp:77] Creating layer label_data_1_split
I1103 17:03:05.944171  6500 net.cpp:100] Creating Layer label_data_1_split
I1103 17:03:05.944180  6500 net.cpp:434] label_data_1_split <- label
I1103 17:03:05.944191  6500 net.cpp:408] label_data_1_split -> label_data_1_split_0
I1103 17:03:05.944206  6500 net.cpp:408] label_data_1_split -> label_data_1_split_1
I1103 17:03:05.944239  6500 net.cpp:150] Setting up label_data_1_split
I1103 17:03:05.944249  6500 net.cpp:157] Top shape: 50 (50)
I1103 17:03:05.944258  6500 net.cpp:157] Top shape: 50 (50)
I1103 17:03:05.944263  6500 net.cpp:165] Memory required for data: 30918000
I1103 17:03:05.944272  6500 layer_factory.hpp:77] Creating layer conv1
I1103 17:03:05.944293  6500 net.cpp:100] Creating Layer conv1
I1103 17:03:05.944298  6500 net.cpp:434] conv1 <- data
I1103 17:03:05.944308  6500 net.cpp:408] conv1 -> conv1
I1103 17:03:05.945344  6500 net.cpp:150] Setting up conv1
I1103 17:03:05.945371  6500 net.cpp:157] Top shape: 50 96 55 55 (14520000)
I1103 17:03:05.945377  6500 net.cpp:165] Memory required for data: 88998000
I1103 17:03:05.945392  6500 layer_factory.hpp:77] Creating layer relu1
I1103 17:03:05.945405  6500 net.cpp:100] Creating Layer relu1
I1103 17:03:05.945415  6500 net.cpp:434] relu1 <- conv1
I1103 17:03:05.945423  6500 net.cpp:395] relu1 -> conv1 (in-place)
I1103 17:03:05.945437  6500 net.cpp:150] Setting up relu1
I1103 17:03:05.945444  6500 net.cpp:157] Top shape: 50 96 55 55 (14520000)
I1103 17:03:05.945449  6500 net.cpp:165] Memory required for data: 147078000
I1103 17:03:05.945454  6500 layer_factory.hpp:77] Creating layer pool1
I1103 17:03:05.945463  6500 net.cpp:100] Creating Layer pool1
I1103 17:03:05.945469  6500 net.cpp:434] pool1 <- conv1
I1103 17:03:05.945477  6500 net.cpp:408] pool1 -> pool1
I1103 17:03:05.945490  6500 net.cpp:150] Setting up pool1
I1103 17:03:05.945500  6500 net.cpp:157] Top shape: 50 96 27 27 (3499200)
I1103 17:03:05.945505  6500 net.cpp:165] Memory required for data: 161074800
I1103 17:03:05.945510  6500 layer_factory.hpp:77] Creating layer norm1
I1103 17:03:05.945523  6500 net.cpp:100] Creating Layer norm1
I1103 17:03:05.945528  6500 net.cpp:434] norm1 <- pool1
I1103 17:03:05.945535  6500 net.cpp:408] norm1 -> norm1
I1103 17:03:05.945546  6500 net.cpp:150] Setting up norm1
I1103 17:03:05.945581  6500 net.cpp:157] Top shape: 50 96 27 27 (3499200)
I1103 17:03:05.945610  6500 net.cpp:165] Memory required for data: 175071600
I1103 17:03:05.945618  6500 layer_factory.hpp:77] Creating layer conv2
I1103 17:03:05.945633  6500 net.cpp:100] Creating Layer conv2
I1103 17:03:05.945642  6500 net.cpp:434] conv2 <- norm1
I1103 17:03:05.945652  6500 net.cpp:408] conv2 -> conv2
I1103 17:03:05.954416  6500 net.cpp:150] Setting up conv2
I1103 17:03:05.954463  6500 net.cpp:157] Top shape: 50 256 27 27 (9331200)
I1103 17:03:05.954468  6500 net.cpp:165] Memory required for data: 212396400
I1103 17:03:05.954481  6500 layer_factory.hpp:77] Creating layer relu2
I1103 17:03:05.954491  6500 net.cpp:100] Creating Layer relu2
I1103 17:03:05.954496  6500 net.cpp:434] relu2 <- conv2
I1103 17:03:05.954502  6500 net.cpp:395] relu2 -> conv2 (in-place)
I1103 17:03:05.954510  6500 net.cpp:150] Setting up relu2
I1103 17:03:05.954515  6500 net.cpp:157] Top shape: 50 256 27 27 (9331200)
I1103 17:03:05.954519  6500 net.cpp:165] Memory required for data: 249721200
I1103 17:03:05.954521  6500 layer_factory.hpp:77] Creating layer pool2
I1103 17:03:05.954529  6500 net.cpp:100] Creating Layer pool2
I1103 17:03:05.954531  6500 net.cpp:434] pool2 <- conv2
I1103 17:03:05.954536  6500 net.cpp:408] pool2 -> pool2
I1103 17:03:05.954546  6500 net.cpp:150] Setting up pool2
I1103 17:03:05.954552  6500 net.cpp:157] Top shape: 50 256 13 13 (2163200)
I1103 17:03:05.954556  6500 net.cpp:165] Memory required for data: 258374000
I1103 17:03:05.954561  6500 layer_factory.hpp:77] Creating layer norm2
I1103 17:03:05.954571  6500 net.cpp:100] Creating Layer norm2
I1103 17:03:05.954578  6500 net.cpp:434] norm2 <- pool2
I1103 17:03:05.954587  6500 net.cpp:408] norm2 -> norm2
I1103 17:03:05.954602  6500 net.cpp:150] Setting up norm2
I1103 17:03:05.954610  6500 net.cpp:157] Top shape: 50 256 13 13 (2163200)
I1103 17:03:05.954617  6500 net.cpp:165] Memory required for data: 267026800
I1103 17:03:05.954622  6500 layer_factory.hpp:77] Creating layer conv3
I1103 17:03:05.954632  6500 net.cpp:100] Creating Layer conv3
I1103 17:03:05.954634  6500 net.cpp:434] conv3 <- norm2
I1103 17:03:05.954640  6500 net.cpp:408] conv3 -> conv3
I1103 17:03:05.978355  6500 net.cpp:150] Setting up conv3
I1103 17:03:05.978384  6500 net.cpp:157] Top shape: 50 384 13 13 (3244800)
I1103 17:03:05.978390  6500 net.cpp:165] Memory required for data: 280006000
I1103 17:03:05.978405  6500 layer_factory.hpp:77] Creating layer relu3
I1103 17:03:05.978416  6500 net.cpp:100] Creating Layer relu3
I1103 17:03:05.978423  6500 net.cpp:434] relu3 <- conv3
I1103 17:03:05.978430  6500 net.cpp:395] relu3 -> conv3 (in-place)
I1103 17:03:05.978441  6500 net.cpp:150] Setting up relu3
I1103 17:03:05.978446  6500 net.cpp:157] Top shape: 50 384 13 13 (3244800)
I1103 17:03:05.978451  6500 net.cpp:165] Memory required for data: 292985200
I1103 17:03:05.978453  6500 layer_factory.hpp:77] Creating layer conv4
I1103 17:03:05.978464  6500 net.cpp:100] Creating Layer conv4
I1103 17:03:05.978468  6500 net.cpp:434] conv4 <- conv3
I1103 17:03:05.978473  6500 net.cpp:408] conv4 -> conv4
I1103 17:03:05.997383  6500 net.cpp:150] Setting up conv4
I1103 17:03:05.997417  6500 net.cpp:157] Top shape: 50 384 13 13 (3244800)
I1103 17:03:05.997423  6500 net.cpp:165] Memory required for data: 305964400
I1103 17:03:05.997432  6500 layer_factory.hpp:77] Creating layer relu4
I1103 17:03:05.997442  6500 net.cpp:100] Creating Layer relu4
I1103 17:03:05.997447  6500 net.cpp:434] relu4 <- conv4
I1103 17:03:05.997453  6500 net.cpp:395] relu4 -> conv4 (in-place)
I1103 17:03:05.997465  6500 net.cpp:150] Setting up relu4
I1103 17:03:05.997474  6500 net.cpp:157] Top shape: 50 384 13 13 (3244800)
I1103 17:03:05.997480  6500 net.cpp:165] Memory required for data: 318943600
I1103 17:03:05.997486  6500 layer_factory.hpp:77] Creating layer conv5
I1103 17:03:05.997500  6500 net.cpp:100] Creating Layer conv5
I1103 17:03:05.997509  6500 net.cpp:434] conv5 <- conv4
I1103 17:03:05.997519  6500 net.cpp:408] conv5 -> conv5
I1103 17:03:06.009176  6500 net.cpp:150] Setting up conv5
I1103 17:03:06.009207  6500 net.cpp:157] Top shape: 50 256 13 13 (2163200)
I1103 17:03:06.009214  6500 net.cpp:165] Memory required for data: 327596400
I1103 17:03:06.009248  6500 layer_factory.hpp:77] Creating layer relu5
I1103 17:03:06.009261  6500 net.cpp:100] Creating Layer relu5
I1103 17:03:06.009269  6500 net.cpp:434] relu5 <- conv5
I1103 17:03:06.009286  6500 net.cpp:395] relu5 -> conv5 (in-place)
I1103 17:03:06.009316  6500 net.cpp:150] Setting up relu5
I1103 17:03:06.009326  6500 net.cpp:157] Top shape: 50 256 13 13 (2163200)
I1103 17:03:06.009332  6500 net.cpp:165] Memory required for data: 336249200
I1103 17:03:06.009338  6500 layer_factory.hpp:77] Creating layer pool5
I1103 17:03:06.009351  6500 net.cpp:100] Creating Layer pool5
I1103 17:03:06.009359  6500 net.cpp:434] pool5 <- conv5
I1103 17:03:06.009368  6500 net.cpp:408] pool5 -> pool5
I1103 17:03:06.009387  6500 net.cpp:150] Setting up pool5
I1103 17:03:06.009394  6500 net.cpp:157] Top shape: 50 256 6 6 (460800)
I1103 17:03:06.009399  6500 net.cpp:165] Memory required for data: 338092400
I1103 17:03:06.009404  6500 layer_factory.hpp:77] Creating layer fc6
I1103 17:03:06.009415  6500 net.cpp:100] Creating Layer fc6
I1103 17:03:06.009421  6500 net.cpp:434] fc6 <- pool5
I1103 17:03:06.009430  6500 net.cpp:408] fc6 -> fc6
I1103 17:03:07.238389  6500 net.cpp:150] Setting up fc6
I1103 17:03:07.238422  6500 net.cpp:157] Top shape: 50 4096 (204800)
I1103 17:03:07.238430  6500 net.cpp:165] Memory required for data: 338911600
I1103 17:03:07.238453  6500 layer_factory.hpp:77] Creating layer relu6
I1103 17:03:07.238478  6500 net.cpp:100] Creating Layer relu6
I1103 17:03:07.238487  6500 net.cpp:434] relu6 <- fc6
I1103 17:03:07.238497  6500 net.cpp:395] relu6 -> fc6 (in-place)
I1103 17:03:07.238510  6500 net.cpp:150] Setting up relu6
I1103 17:03:07.238514  6500 net.cpp:157] Top shape: 50 4096 (204800)
I1103 17:03:07.238517  6500 net.cpp:165] Memory required for data: 339730800
I1103 17:03:07.238520  6500 layer_factory.hpp:77] Creating layer drop6
I1103 17:03:07.238528  6500 net.cpp:100] Creating Layer drop6
I1103 17:03:07.238530  6500 net.cpp:434] drop6 <- fc6
I1103 17:03:07.238534  6500 net.cpp:395] drop6 -> fc6 (in-place)
I1103 17:03:07.238550  6500 net.cpp:150] Setting up drop6
I1103 17:03:07.238554  6500 net.cpp:157] Top shape: 50 4096 (204800)
I1103 17:03:07.238556  6500 net.cpp:165] Memory required for data: 340550000
I1103 17:03:07.238559  6500 layer_factory.hpp:77] Creating layer fc7
I1103 17:03:07.238564  6500 net.cpp:100] Creating Layer fc7
I1103 17:03:07.238567  6500 net.cpp:434] fc7 <- fc6
I1103 17:03:07.238572  6500 net.cpp:408] fc7 -> fc7
I1103 17:03:07.684545  6500 net.cpp:150] Setting up fc7
I1103 17:03:07.684592  6500 net.cpp:157] Top shape: 50 4096 (204800)
I1103 17:03:07.684612  6500 net.cpp:165] Memory required for data: 341369200
I1103 17:03:07.684625  6500 layer_factory.hpp:77] Creating layer relu7
I1103 17:03:07.684639  6500 net.cpp:100] Creating Layer relu7
I1103 17:03:07.684658  6500 net.cpp:434] relu7 <- fc7
I1103 17:03:07.684669  6500 net.cpp:395] relu7 -> fc7 (in-place)
I1103 17:03:07.684682  6500 net.cpp:150] Setting up relu7
I1103 17:03:07.684703  6500 net.cpp:157] Top shape: 50 4096 (204800)
I1103 17:03:07.684710  6500 net.cpp:165] Memory required for data: 342188400
I1103 17:03:07.684715  6500 layer_factory.hpp:77] Creating layer drop7
I1103 17:03:07.684725  6500 net.cpp:100] Creating Layer drop7
I1103 17:03:07.684731  6500 net.cpp:434] drop7 <- fc7
I1103 17:03:07.684738  6500 net.cpp:395] drop7 -> fc7 (in-place)
I1103 17:03:07.684748  6500 net.cpp:150] Setting up drop7
I1103 17:03:07.684759  6500 net.cpp:157] Top shape: 50 4096 (204800)
I1103 17:03:07.684764  6500 net.cpp:165] Memory required for data: 343007600
I1103 17:03:07.684770  6500 layer_factory.hpp:77] Creating layer fc8
I1103 17:03:07.684780  6500 net.cpp:100] Creating Layer fc8
I1103 17:03:07.684787  6500 net.cpp:434] fc8 <- fc7
I1103 17:03:07.684794  6500 net.cpp:408] fc8 -> fc8
I1103 17:03:07.685026  6500 net.cpp:150] Setting up fc8
I1103 17:03:07.685035  6500 net.cpp:157] Top shape: 50 2 (100)
I1103 17:03:07.685040  6500 net.cpp:165] Memory required for data: 343008000
I1103 17:03:07.685060  6500 layer_factory.hpp:77] Creating layer fc8_fc8_0_split
I1103 17:03:07.685075  6500 net.cpp:100] Creating Layer fc8_fc8_0_split
I1103 17:03:07.685082  6500 net.cpp:434] fc8_fc8_0_split <- fc8
I1103 17:03:07.685089  6500 net.cpp:408] fc8_fc8_0_split -> fc8_fc8_0_split_0
I1103 17:03:07.685118  6500 net.cpp:408] fc8_fc8_0_split -> fc8_fc8_0_split_1
I1103 17:03:07.685132  6500 net.cpp:150] Setting up fc8_fc8_0_split
I1103 17:03:07.685142  6500 net.cpp:157] Top shape: 50 2 (100)
I1103 17:03:07.685148  6500 net.cpp:157] Top shape: 50 2 (100)
I1103 17:03:07.685153  6500 net.cpp:165] Memory required for data: 343008800
I1103 17:03:07.685158  6500 layer_factory.hpp:77] Creating layer accuracy
I1103 17:03:08.766746  6500 net.cpp:100] Creating Layer accuracy
I1103 17:03:08.766773  6500 net.cpp:434] accuracy <- fc8_fc8_0_split_0
I1103 17:03:08.766787  6500 net.cpp:434] accuracy <- label_data_1_split_0
I1103 17:03:08.766798  6500 net.cpp:408] accuracy -> accuracy
…
