…
I1107 11:44:09.761060  2430 net.cpp:322] The NetState phase (0) differed from the phase (1) specified by a rule in layer mnist
I1107 11:44:09.761075  2430 net.cpp:322] The NetState phase (0) differed from the phase (1) specified by a rule in layer accuracy
I1107 11:44:09.761147  2430 net.cpp:58] Initializing net from parameters: 
name: "LeNet"
state {
  phase: TRAIN
  level: 0
  stage: ""
}
layer {
  name: "mnist"
  type: "Data"
  top: "data"
  top: "label"
  include {
    phase: TRAIN
  }
  transform_param {
    scale: 0.00390625
  }
  data_param {
    source: "examples/mnist/mnist_train_lmdb"
    batch_size: 64
    backend: LMDB
  }
}
layer {
  name: "conv1"
  type: "Convolution"
  bottom: "data"
  top: "conv1"
  param {
    lr_mult: 1
  }
  param {
    lr_mult: 2
  }
  convolution_param {
    num_output: 20
    kernel_size: 5
    stride: 1
    weight_filler {
      type: "xavier"
    }
    bias_filler {
      type: "constant"
    }
  }
}
layer {
  name: "pool1"
  type: "Pooling"
  bottom: "conv1"
  top: "pool1"
  pooling_param {
    pool: MAX
    kernel_size: 2
    stride: 2
  }
}
layer {
  name: "conv2"
  type: "Convolution"
  bottom: "pool1"
  top: "conv2"
  param {
    lr_mult: 1
  }
  param {
    lr_mult: 2
  }
  convolution_param {
    num_output: 50
    kernel_size: 5
    stride: 1
    weight_filler {
      type: "xavier"
    }
    bias_filler {
      type: "constant"
    }
  }
}
layer {
  name: "pool2"
  type: "Pooling"
  bottom: "conv2"
  top: "pool2"
  pooling_param {
    pool: MAX
    kernel_size: 2
    stride: 2
  }
}
layer {
  name: "ip1"
  type: "InnerProduct"
  bottom: "pool2"
  top: "ip1"
  param {
    lr_mult: 1
  }
  param {
    lr_mult: 2
  }
  inner_product_param {
    num_output: 500
    weight_filler {
      type: "xavier"
    }
    bias_filler {
      type: "constant"
    }
  }
}
layer {
  name: "relu1"
  type: "ReLU"
  bottom: "ip1"
  top: "ip1"
}
layer {
  name: "ip2"
  type: "InnerProduct"
  bottom: "ip1"
  top: "ip2"
  param {
    lr_mult: 1
  }
  param {
    lr_mult: 2
  }
  inner_product_param {
    num_output: 10
    weight_filler {
      type: "xavier"
    }
    bias_filler {
      type: "constant"
    }
  }
}
layer {
  name: "loss"
  type: "SoftmaxWithLoss"
  bottom: "ip2"
  bottom: "label"
  top: "loss"
}
I1107 11:44:09.761199  2430 layer_factory.hpp:77] Creating layer mnist
I1107 11:44:09.761646  2430 net.cpp:100] Creating Layer mnist
I1107 11:44:09.761657  2430 net.cpp:408] mnist -> data
I1107 11:44:09.761677  2430 net.cpp:408] mnist -> label
I1107 11:44:09.761735  2433 db_lmdb.cpp:35] Opened lmdb examples/mnist/mnist_train_lmdb
I1107 11:44:09.761809  2430 data_layer.cpp:41] output data size: 64,1,28,28
I1107 11:44:09.761911  2430 net.cpp:150] Setting up mnist
I1107 11:44:09.761926  2430 net.cpp:157] Top shape: 64 1 28 28 (50176)
I1107 11:44:09.761932  2430 net.cpp:157] Top shape: 64 (64)
I1107 11:44:09.761935  2430 net.cpp:165] Memory required for data: 200960
I1107 11:44:09.761942  2430 layer_factory.hpp:77] Creating layer conv1
I1107 11:44:09.761957  2430 net.cpp:100] Creating Layer conv1
I1107 11:44:09.761962  2430 net.cpp:434] conv1 <- data
I1107 11:44:09.761981  2430 net.cpp:408] conv1 -> conv1
I1107 11:44:09.762042  2430 net.cpp:150] Setting up conv1
I1107 11:44:09.762051  2430 net.cpp:157] Top shape: 64 20 24 24 (737280)
I1107 11:44:09.762058  2430 net.cpp:165] Memory required for data: 3150080
I1107 11:44:09.762068  2430 layer_factory.hpp:77] Creating layer pool1
I1107 11:44:09.762075  2430 net.cpp:100] Creating Layer pool1
I1107 11:44:09.762084  2430 net.cpp:434] pool1 <- conv1
I1107 11:44:09.762097  2430 net.cpp:408] pool1 -> pool1
I1107 11:44:09.762116  2430 net.cpp:150] Setting up pool1
I1107 11:44:09.762123  2430 net.cpp:157] Top shape: 64 20 12 12 (184320)
I1107 11:44:09.762127  2430 net.cpp:165] Memory required for data: 3887360
I1107 11:44:09.762131  2430 layer_factory.hpp:77] Creating layer conv2
I1107 11:44:09.762140  2430 net.cpp:100] Creating Layer conv2
I1107 11:44:09.762143  2430 net.cpp:434] conv2 <- pool1
I1107 11:44:09.762148  2430 net.cpp:408] conv2 -> conv2
I1107 11:44:09.762311  2430 net.cpp:150] Setting up conv2
I1107 11:44:09.762320  2430 net.cpp:157] Top shape: 64 50 8 8 (204800)
I1107 11:44:09.762323  2430 net.cpp:165] Memory required for data: 4706560
I1107 11:44:09.762331  2430 layer_factory.hpp:77] Creating layer pool2
I1107 11:44:09.762338  2430 net.cpp:100] Creating Layer pool2
I1107 11:44:09.762347  2430 net.cpp:434] pool2 <- conv2
I1107 11:44:09.762352  2430 net.cpp:408] pool2 -> pool2
I1107 11:44:09.762361  2430 net.cpp:150] Setting up pool2
I1107 11:44:09.762368  2430 net.cpp:157] Top shape: 64 50 4 4 (51200)
I1107 11:44:09.762372  2430 net.cpp:165] Memory required for data: 4911360
I1107 11:44:09.762377  2430 layer_factory.hpp:77] Creating layer ip1
I1107 11:44:09.762384  2430 net.cpp:100] Creating Layer ip1
I1107 11:44:09.762392  2430 net.cpp:434] ip1 <- pool2
I1107 11:44:09.762398  2430 net.cpp:408] ip1 -> ip1
I1107 11:44:09.764937  2430 net.cpp:150] Setting up ip1
I1107 11:44:09.764953  2430 net.cpp:157] Top shape: 64 500 (32000)
I1107 11:44:09.764957  2430 net.cpp:165] Memory required for data: 5039360
I1107 11:44:09.764966  2430 layer_factory.hpp:77] Creating layer relu1
I1107 11:44:09.764972  2430 net.cpp:100] Creating Layer relu1
I1107 11:44:09.764976  2430 net.cpp:434] relu1 <- ip1
I1107 11:44:09.764982  2430 net.cpp:395] relu1 -> ip1 (in-place)
I1107 11:44:09.764997  2430 net.cpp:150] Setting up relu1
I1107 11:44:09.765000  2430 net.cpp:157] Top shape: 64 500 (32000)
I1107 11:44:09.765004  2430 net.cpp:165] Memory required for data: 5167360
I1107 11:44:09.765007  2430 layer_factory.hpp:77] Creating layer ip2
I1107 11:44:09.765014  2430 net.cpp:100] Creating Layer ip2
I1107 11:44:09.765018  2430 net.cpp:434] ip2 <- ip1
I1107 11:44:09.765023  2430 net.cpp:408] ip2 -> ip2
I1107 11:44:09.765065  2430 net.cpp:150] Setting up ip2
I1107 11:44:09.765070  2430 net.cpp:157] Top shape: 64 10 (640)
I1107 11:44:09.765074  2430 net.cpp:165] Memory required for data: 5169920
I1107 11:44:09.765079  2430 layer_factory.hpp:77] Creating layer loss
I1107 11:44:09.765086  2430 net.cpp:100] Creating Layer loss
I1107 11:44:09.765090  2430 net.cpp:434] loss <- ip2
I1107 11:44:09.765094  2430 net.cpp:434] loss <- label
I1107 11:44:09.765100  2430 net.cpp:408] loss -> loss
I1107 11:44:09.765116  2430 layer_factory.hpp:77] Creating layer loss
…
I1107 11:44:09.765499  2430 solver.cpp:181] Creating test net (#0) specified by net file: examples/mnist/lenet_train_test.prototxt
I1107 11:44:09.765532  2430 net.cpp:322] The NetState phase (1) differed from the phase (0) specified by a rule in layer mnist
I1107 11:44:09.765617  2430 net.cpp:58] Initializing net from parameters: 
name: "LeNet"
state {
  phase: TEST
}
layer {
  name: "mnist"
  type: "Data"
  top: "data"
  top: "label"
  include {
    phase: TEST
  }
  transform_param {
    scale: 0.00390625
  }
  data_param {
    source: "examples/mnist/mnist_test_lmdb"
    batch_size: 100
    backend: LMDB
  }
}
layer {
  name: "conv1"
  type: "Convolution"
  bottom: "data"
  top: "conv1"
  param {
    lr_mult: 1
  }
  param {
    lr_mult: 2
  }
  convolution_param {
    num_output: 20
    kernel_size: 5
    stride: 1
    weight_filler {
      type: "xavier"
    }
    bias_filler {
      type: "constant"
    }
  }
}
layer {
  name: "pool1"
  type: "Pooling"
  bottom: "conv1"
  top: "pool1"
  pooling_param {
    pool: MAX
    kernel_size: 2
    stride: 2
  }
}
layer {
  name: "conv2"
  type: "Convolution"
  bottom: "pool1"
  top: "conv2"
  param {
    lr_mult: 1
  }
  param {
    lr_mult: 2
  }
  convolution_param {
    num_output: 50
    kernel_size: 5
    stride: 1
    weight_filler {
      type: "xavier"
    }
    bias_filler {
      type: "constant"
    }
  }
}
layer {
  name: "pool2"
  type: "Pooling"
  bottom: "conv2"
  top: "pool2"
  pooling_param {
    pool: MAX
    kernel_size: 2
    stride: 2
  }
}
layer {
  name: "ip1"
  type: "InnerProduct"
  bottom: "pool2"
  top: "ip1"
  param {
    lr_mult: 1
  }
  param {
    lr_mult: 2
  }
  inner_product_param {
    num_output: 500
    weight_filler {
      type: "xavier"
    }
    bias_filler {
      type: "constant"
    }
  }
}
layer {
  name: "relu1"
  type: "ReLU"
  bottom: "ip1"
  top: "ip1"
}
layer {
  name: "ip2"
  type: "InnerProduct"
  bottom: "ip1"
  top: "ip2"
  param {
    lr_mult: 1
  }
  param {
    lr_mult: 2
  }
  inner_product_param {
    num_output: 10
    weight_filler {
      type: "xavier"
    }
    bias_filler {
      type: "constant"
    }
  }
}
layer {
  name: "accuracy"
  type: "Accuracy"
  bottom: "ip2"
  bottom: "label"
  top: "accuracy"
  include {
    phase: TEST
  }
}
layer {
  name: "loss"
  type: "SoftmaxWithLoss"
  bottom: "ip2"
  bottom: "label"
  top: "loss"
}
I1107 11:44:09.765674  2430 layer_factory.hpp:77] Creating layer mnist
I1107 11:44:09.765761  2430 net.cpp:100] Creating Layer mnist
I1107 11:44:09.765772  2430 net.cpp:408] mnist -> data
I1107 11:44:09.765780  2430 net.cpp:408] mnist -> label
I1107 11:44:09.765808  2435 db_lmdb.cpp:35] Opened lmdb examples/mnist/mnist_test_lmdb
I1107 11:44:09.765851  2430 data_layer.cpp:41] output data size: 100,1,28,28
I1107 11:44:09.766134  2430 net.cpp:150] Setting up mnist
I1107 11:44:09.766145  2430 net.cpp:157] Top shape: 100 1 28 28 (78400)
I1107 11:44:09.766151  2430 net.cpp:157] Top shape: 100 (100)
I1107 11:44:09.766155  2430 net.cpp:165] Memory required for data: 314000
I1107 11:44:09.766160  2430 layer_factory.hpp:77] Creating layer label_mnist_1_split
I1107 11:44:09.766167  2430 net.cpp:100] Creating Layer label_mnist_1_split
I1107 11:44:09.766171  2430 net.cpp:434] label_mnist_1_split <- label
I1107 11:44:09.766176  2430 net.cpp:408] label_mnist_1_split -> label_mnist_1_split_0
I1107 11:44:09.766185  2430 net.cpp:408] label_mnist_1_split -> label_mnist_1_split_1
I1107 11:44:09.766199  2430 net.cpp:150] Setting up label_mnist_1_split
I1107 11:44:09.766206  2430 net.cpp:157] Top shape: 100 (100)
I1107 11:44:09.766212  2430 net.cpp:157] Top shape: 100 (100)
I1107 11:44:09.766216  2430 net.cpp:165] Memory required for data: 314800
I1107 11:44:09.766221  2430 layer_factory.hpp:77] Creating layer conv1
I1107 11:44:09.766229  2430 net.cpp:100] Creating Layer conv1
I1107 11:44:09.766233  2430 net.cpp:434] conv1 <- data
I1107 11:44:09.766240  2430 net.cpp:408] conv1 -> conv1
I1107 11:44:09.766270  2430 net.cpp:150] Setting up conv1
I1107 11:44:09.766278  2430 net.cpp:157] Top shape: 100 20 24 24 (1152000)
I1107 11:44:09.766283  2430 net.cpp:165] Memory required for data: 4922800
I1107 11:44:09.766293  2430 layer_factory.hpp:77] Creating layer pool1
I1107 11:44:09.766304  2430 net.cpp:100] Creating Layer pool1
I1107 11:44:09.766314  2430 net.cpp:434] pool1 <- conv1
I1107 11:44:09.766320  2430 net.cpp:408] pool1 -> pool1
I1107 11:44:09.766330  2430 net.cpp:150] Setting up pool1
I1107 11:44:09.766340  2430 net.cpp:157] Top shape: 100 20 12 12 (288000)
I1107 11:44:09.766345  2430 net.cpp:165] Memory required for data: 6074800
I1107 11:44:09.766350  2430 layer_factory.hpp:77] Creating layer conv2
I1107 11:44:09.766360  2430 net.cpp:100] Creating Layer conv2
I1107 11:44:09.766368  2430 net.cpp:434] conv2 <- pool1
I1107 11:44:09.766373  2430 net.cpp:408] conv2 -> conv2
I1107 11:44:09.766535  2430 net.cpp:150] Setting up conv2
I1107 11:44:09.766542  2430 net.cpp:157] Top shape: 100 50 8 8 (320000)
I1107 11:44:09.766547  2430 net.cpp:165] Memory required for data: 7354800
I1107 11:44:09.766556  2430 layer_factory.hpp:77] Creating layer pool2
I1107 11:44:09.766562  2430 net.cpp:100] Creating Layer pool2
I1107 11:44:09.766567  2430 net.cpp:434] pool2 <- conv2
I1107 11:44:09.766572  2430 net.cpp:408] pool2 -> pool2
I1107 11:44:09.766579  2430 net.cpp:150] Setting up pool2
I1107 11:44:09.766588  2430 net.cpp:157] Top shape: 100 50 4 4 (80000)
I1107 11:44:09.766592  2430 net.cpp:165] Memory required for data: 7674800
I1107 11:44:09.766597  2430 layer_factory.hpp:77] Creating layer ip1
I1107 11:44:09.766602  2430 net.cpp:100] Creating Layer ip1
I1107 11:44:09.766607  2430 net.cpp:434] ip1 <- pool2
I1107 11:44:09.766611  2430 net.cpp:408] ip1 -> ip1
I1107 11:44:09.769165  2430 net.cpp:150] Setting up ip1
I1107 11:44:09.769181  2430 net.cpp:157] Top shape: 100 500 (50000)
I1107 11:44:09.769186  2430 net.cpp:165] Memory required for data: 7874800
I1107 11:44:09.769194  2430 layer_factory.hpp:77] Creating layer relu1
I1107 11:44:09.769201  2430 net.cpp:100] Creating Layer relu1
I1107 11:44:09.769206  2430 net.cpp:434] relu1 <- ip1
I1107 11:44:09.769210  2430 net.cpp:395] relu1 -> ip1 (in-place)
I1107 11:44:09.769217  2430 net.cpp:150] Setting up relu1
I1107 11:44:09.769222  2430 net.cpp:157] Top shape: 100 500 (50000)
I1107 11:44:09.769225  2430 net.cpp:165] Memory required for data: 8074800
I1107 11:44:09.769228  2430 layer_factory.hpp:77] Creating layer ip2
I1107 11:44:09.769237  2430 net.cpp:100] Creating Layer ip2
I1107 11:44:09.769239  2430 net.cpp:434] ip2 <- ip1
I1107 11:44:09.769245  2430 net.cpp:408] ip2 -> ip2
I1107 11:44:09.769286  2430 net.cpp:150] Setting up ip2
I1107 11:44:09.769292  2430 net.cpp:157] Top shape: 100 10 (1000)
I1107 11:44:09.769295  2430 net.cpp:165] Memory required for data: 8078800
I1107 11:44:09.769301  2430 layer_factory.hpp:77] Creating layer ip2_ip2_0_split
I1107 11:44:09.769307  2430 net.cpp:100] Creating Layer ip2_ip2_0_split
I1107 11:44:09.769310  2430 net.cpp:434] ip2_ip2_0_split <- ip2
I1107 11:44:09.769315  2430 net.cpp:408] ip2_ip2_0_split -> ip2_ip2_0_split_0
I1107 11:44:09.769321  2430 net.cpp:408] ip2_ip2_0_split -> ip2_ip2_0_split_1
I1107 11:44:09.769328  2430 net.cpp:150] Setting up ip2_ip2_0_split
I1107 11:44:09.769332  2430 net.cpp:157] Top shape: 100 10 (1000)
I1107 11:44:09.769337  2430 net.cpp:157] Top shape: 100 10 (1000)
I1107 11:44:09.769340  2430 net.cpp:165] Memory required for data: 8086800
I1107 11:44:09.769345  2430 layer_factory.hpp:77] Creating layer accuracy
I1107 11:44:09.769351  2430 net.cpp:100] Creating Layer accuracy
I1107 11:44:09.769353  2430 net.cpp:434] accuracy <- ip2_ip2_0_split_0
I1107 11:44:09.769358  2430 net.cpp:434] accuracy <- label_mnist_1_split_0
I1107 11:44:09.769363  2430 net.cpp:408] accuracy -> accuracy
…
